backend/model_store/flagged_transaction_dnn_model.pth (torch, 203484 bytes, 20 tensors)

network.0.weight f4 [256, 21]
000000 43 b8 7f bd 3e a9 92 bd 91 db 16 be e5 2a 07 bd
       -0.062431585 -0.07161187 -0.14732195 -0.03299989
000010 6e 08 50 3e 89 42 2c bd 8e f2 99 3d 0f 09 0f 3d
       0.20315716 -0.04205564 0.07516967 0.03492075
000020 5b 19 48 3c 49 f8 3c 3c 65 a9 96 bd b6 44 2c 3e
       0.012213076 0.011533805 -0.07356528 0.16823086
000030 b0 ae 3a be f1 50 49 bd 07 9f 01 3d dd dd 5b bd
       -0.182307 -0.049149457 0.0316458 -0.053678382
000040 63 f5 01 bb 8a 30 bf 3d 92 4d b3 be 89 b9 47 bd
       -0.00198301 0.0933543 -0.3502012 -0.048760924
000050 dd e3 93 bd e8 87 40 39 41 42 f8 3d aa 00 ca 3d
       -0.07221196 0.00018361176 0.12122012 0.09863408
000060 0a 86 6a 3e 57 a3 2b 3e 80 2a 71 bd e1 82 cb 3c
       0.22902694 0.16761528 -0.05887842 0.024842681
000070 a5 64 86 be b8 a4 6e be c5 42 86 3c d0 fc bc 3d
       -0.2624866 -0.23305023 0.01638926 0.09227908
000080 98 0b 29 3e 75 74 8b 3d 49 fa cf 3d cc 47 4e 3d
       0.16508329 0.06809322 0.1015516 0.05036144
000090 e6 46 89 3c 68 c9 a2 3d 01 f0 ad 3b e7 8f d1 3d
       0.01675744 0.079485714 0.0053081517 0.10232525
0000a0 4b 23 a0 3d d5 20 fb bd fd 17 bf bd a3 20 2e be
       0.078192316 -0.122621216 -0.09330747 -0.17004637
0000b0 4d 24 37 be 40 78 0b 3d e1 50 f0 bd 82 70 01 3d
       -0.17884941 0.034050226 -0.117341764 0.031601436
0000c0 9f 38 8b 3c bf d5 78 3e d0 21 f1 bd 42 0d 89 3d
       0.016994772 0.24300288 -0.11774027 0.06691982
0000d0 73 9a 3d be 3d 2d 3e 3c 9a c0 8e 3d 1d a6 0c 3d
       -0.18515949 0.011607465 0.069703296 0.034338105
0000e0 5d d6 2d 3e 83 e1 b7 bd 53 db 96 bd c5 33 3c be
       0.16976304 -0.0897856 -0.073660515 -0.18379124
0000f0 59 9e 35 3d 01 0e ef bd b7 7e 1e be 72 df 9c 3d
       0.044340465 -0.11672593 -0.15478025 0.07659806
000100 38 44 82 3d 9c 27 f7 3d 95 dc 98 3d 72 d1 b3 bd
       0.06360668 0.12068102 0.07463948 -0.08780183
000110 1c cb 32 be af 30 64 3e 74 4e 8f bb b5 ac 33 3e
       -0.17460293 0.22284196 -0.004373366 0.17546351
000120 da eb 41 be cd 36 2f bd 7a 1f bd bd da 93 be 3d
       -0.18937626 -0.04277687 -0.09234519 0.09305544
000130 83 9a 6f 3e f1 e4 8c bd 23 55 09 3e c4 f4 9b 3c
       0.23398785 -0.068796046 0.13411383 0.019037612
000140 32 c4 c8 bd 10 8a 58 be d1 c2 09 3e c7 68 e5 bd
       -0.09803046 -0.21146417 0.13453223 -0.11201625
000150 82 6e 41 be 02 dd 95 3d 1f 8f fa bd 2a ac 0c 3d
       -0.18889812 0.073175445 -0.122343294 0.034343876
000160 39 df e2 3d b5 7d 4e be ff 53 87 bd 34 99 5e be
       0.110777326 -0.20165141 -0.06607818 -0.2173813
000170 2b 58 bf bd a5 7f d0 bd d6 7b 04 3e 01 b7 e7 3d
       -0.093429886 -0.10180596 0.12937865 0.11314202
000180 a9 4d f5 bb 4d 74 a0 3e a5 1d c7 3d bc be 15 bd
       -0.0074860645 0.3133873 0.09722451 -0.03655885
000190 27 83 ac bc 63 c7 81 be 80 1c 92 3e fe c9 0b 3e
       -0.021058632 -0.25347432 0.2853737 0.13651273
0001a0 15 c4 19 3d ff 20 23 3e f4 97 45 3d fd 8c ad 3d
       0.037540514 0.15930556 0.048240617 0.08474157
0001b0 be c8 00 3d 08 dd b6 bd da 28 00 3e 6b ce 39 bc
       0.031441443 -0.08928877 0.12515584 -0.011340718
0001c0 e2 9d b6 3d 72 95 32 be 96 e0 bb 3c eb ac b2 bc
       0.089168325 -0.17439821 0.02293424 -0.02181097
0001d0 aa 93 e8 3d a2 67 58 3d 98 99 91 be ce 43 c5 3c
       0.1135629 0.052833207 -0.28437495 0.024080183
0001e0 19 8c ff 3d 5e 8f 0d 3e a4 fc 01 3e 44 8c 98 3e
       0.124778934 0.13824221 0.12694031 0.29794514
0001f0 38 43 5f be 54 9b 19 be 43 9b 9e 3d 1b 9f 30 3e
       -0.21802986 -0.15000659 0.077444576 0.17248194
000200 51 e6 c1 bd 97 e0 02 3e 17 1e bb 3d a2 49 9d 3d
       -0.094677575 0.12780987 0.091365986 0.0768006
000210 d1 9e 3e 3e d0 6b bd 3d cc 4f d6 3c 47 5a 07 be
       0.18615271 0.09249079 0.026161097 -0.13218032
000220 5a a4 ae 3e 1c 68 7b 3e 94 6e 0a bd 5f c9 8d 3d
       0.34109765 0.24551433 -0.03379686 0.06923174
000230 8f fd 90 3d 26 81 89 be 09 db a2 3e 84 01 b6 3b
       0.070796125 -0.26856345 0.31807736 0.00555438
000240 83 3e 3a be e3 57 11 3d 14 9a 46 be 6f e0 7f 3e
       -0.18187909 0.035484206 -0.19394714 0.24987958
000250 be ae 84 3d b3 cb 41 bd f8 4e 01 3e 0c 03 73 3d
       0.06478642 -0.047313403 0.1262778 0.059329078
000260 5c ce 27 be 01 e0 91 3c 34 b0 8c 3e f5 30 13 3d
       -0.16387314 0.017807009 0.27478182 0.03593536
000270 89 d8 85 bd 40 c8 1a be 94 5e 0f 3e 32 1e 25 3e
       -0.065354414 -0.15115452 0.14000922 0.161248
000280 c7 8b 9b 3d 5f 17 26 be f3 c0 b1 bb d5 9d 1a bd
       0.0759502 -0.16219853 -0.0054246127 -0.037748177
000290 df 82 48 be b8 e8 90 3d a6 8d d2 3d 55 c0 19 bd
       -0.19581173 0.070756376 0.102809235 -0.037536938
0002a0 68 81 4f 3e fb 99 96 bd 7c 34 09 3e 04 50 35 3d
       0.20264208 -0.07353588 0.13398927 0.044265762
0002b0 2a dd 89 3d 8f 22 23 3e c7 80 a9 3d 00 5e 05 3e
       0.06731637 0.15931152 0.082765155 0.1302414
0002c0 2c d9 2b 3d 4d 40 28 3e d8 1e a5 bd 97 88 1b be
       0.041955158 0.16430779 -0.080625236 -0.15188824
0002d0 44 01 a3 bd 2b 5d ab 3c d3 d7 42 be 49 88 0b 3e
       -0.07959226 0.02091845 -0.19027643 0.13626207
0002e0 d9 37 42 3d 51 e4 1a be 32 88 1f be c9 9c 08 3e
       0.04741654 -0.15126158 -0.15579298 0.13341059
0002f0 7d bd 33 3e 11 b1 61 bd 54 2e 7a 3d c5 a8 22 3c
       0.17552753 -0.055100504 0.06107934 0.009927933
000300 29 14 01 be 0b 44 f5 3d 0a 4f b3 bd d9 c9 89 be
       -0.12605347 0.11975869 -0.0875531 -0.2691181
000310 31 9b a0 3e 06 bd b9 3d 81 a5 3b 3e be 84 4e bd
       0.31368402 0.090692565 0.18324853 -0.05041956
000320 8f 2d df bc 73 ca 05 3d eb 63 27 bd e7 36 eb 3c
       -0.027243404 0.032663774 -0.040866774 0.028712703
000330 d6 23 9a 3d 87 26 18 3e 7f 3b 86 be 8c 7d 69 3e
       0.075263664 0.14858447 -0.26217267 0.22801799
000340 3e b7 6c 3e 3f 1b 11 3c cd c9 9a bd 81 06 6a be
       0.23116776 0.008856594 -0.07558022 -0.22854044
000350 7c ee e2 3d f8 4f 25 be 03 1b 1e 3e d3 88 d0 3d
       0.110806435 -0.16143787 0.15439992 0.10182347
000360 54 15 66 bc 23 01 8d bd 19 cf 35 bd 4d 62 6d bc
       -0.014043171 -0.068849824 -0.044386957 -0.014488769
000370 89 ba 54 3e 11 98 56 3e f8 b6 97 bd 93 f2 e7 bd
       0.20774283 0.20956446 -0.074079454 -0.11325564
000380 6e 5c ff 3d 02 88 17 3e d6 86 7a bd 9d 4c 16 be
       0.124688014 0.14797977 -0.061163746 -0.14677663
000390 c5 f5 1e 3e 67 a2 a3 3d 34 df 76 be ef aa 68 bc
       0.15523441 0.0798996 -0.24108583 -0.01420091
0003a0 4f 5d 32 3d 1a 1d 89 3d 39 82 47 3e e5 d8 bf 3d
       0.043546017 0.06695004 0.1948327 0.09367541
0003b0 b9 6d 5c 3e 95 38 61 be 8c 72 c4 bd 35 2c dc 3d
       0.21526231 -0.2199424 -0.095921606 0.10750619
0003c0 f8 dc ac 3d cb 74 97 3c 80 2b 12 bd bf 55 51 bd
       0.08440584 0.018488308 -0.035686016 -0.051107164
0003d0 e3 4a 82 be 66 47 b7 3c c2 8a 7e 3e 50 3f 0f 3e
       -0.2544776 0.022372913 0.2485762 0.13988996
0003e0 99 f5 c8 bd f7 73 8e bd c1 69 83 3d 90 75 0a 3e
       -0.09812469 -0.06955712 0.06416655 0.13521409
0003f0 25 3b a9 bc b6 6e e3 ba 98 ec 33 3e 37 a8 f0 bd
       -0.020658085 -0.001735172 0.17570722 -0.117508344

network.0.bias f4 [256]
000000 7d c3 84 36 ff df f2 b6 27 78 fe 37 2a 35 b0 37
       3.9566644e-06 -7.2382386e-06 3.033511e-05 2.1005591e-05
000010 08 80 3c b7 75 0a 63 37 62 a0 82 b7 36 cd 8d b7
       -1.1235483e-05 1.3532689e-05 -1.5571892e-05 -1.6904069e-05
000020 7b 3c fb 37 34 f8 0b b7 33 28 ef 35 1a 90 93 b6
       2.9949695e-05 -8.342835e-06 1.7818587e-06 -4.397717e-06
000030 fa 2b 53 b7 d7 1c 4f 37 3f b3 78 37 ea d5 97 b6
       -1.2586819e-05 1.2344876e-05 1.4823686e-05 -4.5250536e-06
000040 21 3a b7 b6 f8 67 f3 36 57 04 1a 37 98 bc a6 b7
       -5.460592e-06 7.254068e-06 9.180126e-06 -1.9876563e-05
000050 d6 5f 83 37 79 59 88 b8 52 76 22 37 bc 1d 83 38
       1.5661044e-05 -6.501651e-05 9.683501e-06 6.252105e-05
000060 3d e4 32 b7 56 37 a9 36 ad 55 ce 35 60 eb b0 37
       -1.0662768e-05 5.0430344e-06 1.5373131e-06 2.109044e-05
000070 57 63 ca b5 7b 4f 9b b8 9e 9a a3 37 e6 15 8c b7
       -1.5079085e-06 -7.40578e-05 1.9503113e-05 -1.6699498e-05
000080 3f e4 cb 36 a8 2c 8f b4 6d 67 19 b7 e0 00 f1 b5
       6.076443e-06 -2.6668317e-07 -9.143591e-06 -1.7956154e-06
000090 14 2a f3 37 46 60 9e b6 1c c9 03 36 55 c0 69 36
       2.8987452e-05 -4.7199746e-06 1.9637582e-06 3.4831658e-06
0000a0 a2 24 0f 37 17 f7 7f b7 e8 ec d5 b5 3b 31 8e b6
       8.531993e-06 -1.52567145e-05 -1.5938685e-06 -4.237661e-06
0000b0 7a 7f 4d 37 24 ae 02 b7 d0 0e 38 36 26 2a 3b b7
       1.2248633e-05 -7.789149e-06 2.7426759e-06 -1.1155882e-05
0000c0 a0 24 bd b7 05 c1 40 b8 52 a0 b1 b6 8c fa 6c 35
       -2.254761e-05 -4.595613e-05 -5.293675e-06 8.8281445e-07
0000d0 bf fa 14 b7 c2 03 66 37 38 9c 07 b7 d8 68 ff 36
       -8.879869e-06 1.3709943e-05 -8.083e-06 7.6117976e-06
0000e0 0d ff a6 36 5a bb 3d 37 44 d8 3e 37 9d 5f 58 b8
       4.9768773e-06 1.1308899e-05 1.1375236e-05 -5.158746e-05
0000f0 c5 a7 8f 36 9e fd 35 b7 0f 65 fd b6 00 a9 52 b7
       4.281263e-06 -1.0847491e-05 -7.5517523e-06 -1.2556324e-05
000100 bd e2 28 35 86 e5 8b b7 60 ef cb 37 48 4d b8 37
       6.2914825e-07 -1.6676971e-05 2.4310953e-05 2.1970496e-05
000110 73 20 4e b7 c5 56 9e b7 b0 77 a2 37 4e 40 30 b8
       -1.2286112e-05 -1.8875473e-05 1.9367639e-05 -4.202156e-05
000120 23 c5 0d b8 f7 59 64 36 2f 0d 0f 38 74 ca 7f 37
       -3.3800618e-05 3.4027014e-06 3.4106135e-05 1.5246322e-05
000130 1c 75 36 b6 14 cc 17 b6 07 e7 ed 36 6e 0c 29 37
       -2.718828e-06 -2.2619543e-06 7.0900455e-06 1.0076079e-05
000140 35 08 88 b6 ee f2 37 36 21 40 b8 37 b7 fc de 37
       -4.0540713e-06 2.7410529e-06 2.1964372e-05 2.6582142e-05
000150 00 d3 a7 b6 ae 66 8b b6 ab e7 8e b7 89 59 14 b7
       -5.0015515e-06 -4.1544763e-06 -1.7035598e-05 -8.842334e-06
000160 ab 0f d0 b5 0c 54 51 37 f3 b6 5a b7 06 e5 be b7
       -1.5501768e-06 1.2476939e-05 -1.3036409e-05 -2.2756412e-05
000170 5e 83 8b 37 f6 58 1d 36 c1 de 55 36 ca a7 0a 38
       1.6631264e-05 2.3446605e-06 3.1869133e-06 3.305803e-05
000180 1d b4 88 b7 ca a5 09 b6 5f 79 44 37 8a 1d 53 b7
       -1.6296335e-05 -2.0511093e-06 1.1710769e-05 -1.2583458e-05
000190 90 c6 a7 b4 c6 33 11 36 df 73 d8 37 20 2a f6 b7
       -3.1250647e-07 2.163682e-06 2.5803163e-05 -2.9345101e-05
0001a0 98 60 10 37 0c 5f b0 36 7c c9 3f 37 b0 bc 9b b6
       8.605559e-06 5.2562737e-06 1.1431399e-05 -4.641326e-06
0001b0 5e 51 02 b8 f4 ce c4 b5 68 c5 17 36 a1 66 07 b7
       -3.1070194e-05 -1.4663369e-06 2.261566e-06 -8.070522e-06
0001c0 05 ec 53 b7 60 c0 a1 36 45 71 ff 37 6a 0f b0 36
       -1.2631533e-05 4.8205693e-06 3.0451114e-05 5.247003e-06
0001d0 82 8d fe 35 1a 19 9d 37 3a 8e 96 b7 60 f3 02 37
       1.8965659e-06 1.8727547e-05 -1.7947623e-05 7.805269e-06
0001e0 4a 78 61 37 47 83 5b b7 54 3c 8b 37 55 d9 93 b7
       1.3439052e-05 -1.3083983e-05 1.6598184e-05 -1.7624969e-05
0001f0 1c 65 69 35 a8 39 f0 35 ea a4 8a 37 f9 39 18 37
       8.69464e-07 1.7898174e-06 1.6527676e-05 9.073404e-06
000200 76 5f de b7 ba 1d d6 b7 9d a8 eb 37 6e 4d dd b4
       -2.6508915e-05 -2.552463e-05 2.80927e-05 -4.1220795e-07
000210 48 fc a0 b6 8e 18 25 36 c8 45 34 b7 fb 87 ae b7
       -4.797741e-06 2.4601209e-06 -1.0745083e-05 -2.0805737e-05
000220 33 3a 4e 37 8c 27 fc 36 f6 f4 12 38 6c b3 ab b6
       1.2292107e-05 7.514789e-06 3.503725e-05 -5.1170846e-06
000230 78 60 33 37 aa 33 0b 36 81 e7 22 37 69 0f 4c b6
       1.0691692e-05 2.0742687e-06 9.709854e-06 -3.0407339e-06
000240 ab 6f 5e 37 36 ef ea 36 49 3a 2a 37 80 9f 47 b5
       1.3258231e-05 7.0015913e-06 1.014636e-05 -7.436538e-07
000250 74 a5 6e b6 d3 e4 3f b7 2e bc d3 34 e5 d0 c8 36
       -3.556107e-06 -1.1437764e-05 3.943873e-07 5.984783e-06
000260 ff 24 04 b8 8c cc 68 b7 5a 8c 87 b6 fe 88 86 38
       -3.1505708e-05 -1.3875902e-05 -4.0396526e-06 6.415135e-05
000270 3d 2a b2 b7 0d 60 f7 37 11 24 55 37 f0 51 a1 b6
       -2.1238922e-05 2.9489422e-05 1.2704187e-05 -4.8077127e-06
000280 88 d3 22 b6 da 53 b5 b5 03 70 66 37 62 4e e9 b6
       -2.4263009e-06 -1.3509955e-06 1.3735148e-05 -6.953066e-06
000290 00 c8 5f b3 7c b0 81 b7 f4 6d 83 37 b0 d8 c0 36
       -5.2103132e-08 -1.546018e-05 1.5667618e-05 5.7472716e-06
0002a0 a4 27 97 37 df 35 9f 36 53 8a 0c b7 a5 02 56 37
       1.8019062e-05 4.7448407e-06 -8.376856e-06 1.275601e-05
0002b0 28 3c b5 35 60 d8 14 35 48 d0 16 37 50 7d 76 b7
       1.3503059e-06 5.5449163e-07 8.989191e-06 -1.4691919e-05
0002c0 77 83 8b 38 6a 96 7e b7 78 7d 08 36 aa c1 cc b6
       6.652524e-05 -1.5174601e-05 2.0338612e-06 -6.1022192e-06
0002d0 46 7c 8f b7 56 78 61 b7 0b 5d 59 b6 a8 4b b3 36
       -1.7104798e-05 -1.3439063e-05 -3.2389678e-06 5.3434233e-06
0002e0 7c 5d 15 37 79 13 6a b5 3a 75 04 b6 02 1e bf 37
       8.902858e-06 -8.720013e-07 -1.9737768e-06 2.2782948e-05
0002f0 41 ff ba 37 c2 89 11 36 f3 93 22 b6 c1 84 ea 36
       2.229179e-05 2.168687e-06 -2.4226e-06 6.989198e-06
000300 26 3e 8a 36 c5 af 7f 37 5b 42 b7 b6 90 72 5e 37
       4.1199555e-06 1.5240109e-05 -5.46155e-06 1.3258905e-05
000310 cc 3b 85 37 68 71 38 38 d0 2f 78 37 1a 09 db b7
       1.588268e-05 4.3974636e-05 1.4793084e-05 -2.6111073e-05
000320 82 8f 8c b6 6f 0e dd 37 b2 58 6b b6 a0 71 a4 b7
       -4.1890316e-06 2.6351974e-05 -3.5069356e-06 -1.9603234e-05
000330 d6 7f c1 b6 4b 74 03 b8 2e 04 c8 b6 ef c6 bb b7
       -5.7667303e-06 -3.134114e-05 -5.960951e-06 -2.2384773e-05
000340 80 d9 34 33 a5 60 24 b7 03 72 81 b6 c0 6a 47 36
       4.210733e-08 -9.797664e-06 -3.8577723e-06 2.9715447e-06
000350 12 d5 f2 b7 91 37 15 b7 65 35 d0 37 5b a2 3a 37
       -2.8947867e-05 -8.89403e-06 2.4820396e-05 1.1124265e-05
000360 ee 74 ee b7 3e 8f 08 b7 5e c1 96 37 f6 4f e9 b6
       -2.842626e-05 -8.139583e-06 1.7971437e-05 -6.95325e-06
000370 aa 2c ab b7 3e 42 2f b6 5d e4 11 37 20 92 5c b8
       -2.0405587e-05 -2.611559e-06 8.6958435e-06 -5.2588177e-05
000380 de e8 26 b6 c2 9b 0c 37 e6 36 b0 37 47 5c dd b6
       -2.4871474e-06 8.3809155e-06 2.1006399e-05 -6.5970557e-06
000390 13 56 73 37 19 f7 8e 37 17 27 c9 37 ac 1a 9f 37
       1.4503969e-05 1.7042783e-05 2.397927e-05 1.8966697e-05
0003a0 1a b6 d7 37 69 0b 3d 37 36 a8 79 b6 e4 5c 94 36
       2.5714795e-05 1.12679345e-05 -3.7201803e-06 4.4215576e-06
0003b0 b5 eb 48 b7 4e 27 45 37 fc 91 b6 b7 22 1d 59 35
       -1.1975809e-05 1.1751266e-05 -2.176407e-05 8.0881193e-07
0003c0 7d 99 53 b8 68 a5 17 36 f2 84 ab b6 c4 da b4 37
       -5.0449267e-05 2.2597033e-06 -5.111674e-06 2.1559543e-05
0003d0 1d 23 10 b8 a5 6b ec b6 2e 8e 4b 36 8a 98 37 36
       -3.4364977e-05 -7.0458796e-06 3.0332117e-06 2.7357914e-06
0003e0 5f 71 d7 b7 3a e8 39 37 9a d3 bb 36 80 00 5e 33
       -2.568279e-05 1.1080929e-05 5.597668e-06 5.1688858e-08
0003f0 4a cf 8d 36 78 9d d2 36 ca 57 53 37 2e 19 a6 37
       4.226259e-06 6.2768195e-06 1.259702e-05 1.9800467e-05

network.1.weight f4 [256]
000000 06 2b 5b 3f d3 ec 59 3f b8 7d 66 3f 36 e8 73 3f
       0.85612524 0.8512699 0.9003558 0.952762
000010 c6 b8 7d 3f ba 8f 71 3f 09 60 74 3f 9e ca 69 3f
       0.99110067 0.94359934 0.9545904 0.91324794
000020 ba e3 73 3f 9b fe 80 3f 20 56 77 3f dd 00 68 3f
       0.9526936 1.00777 0.9661579 0.9062632
000030 02 01 85 3f 92 a4 6c 3f 32 66 61 3f 37 b5 3e 3f
       1.0390933 0.92438614 0.8804656 0.7449526
000040 9b 9a 66 3f ac 75 81 3f 22 b1 41 3f 11 a5 68 3f
       0.9007966 1.0114036 0.7566091 0.9087687
000050 7f 5e 83 3f d3 44 6f 3f 94 ad 6d 3f 49 48 76 3f
       1.0263213 0.9346439 0.92842984 0.9620405
000060 6e f3 75 3f 5b 5a 5a 3f 5a f9 79 3f e0 31 63 3f
       0.9607457 0.8529412 0.97646105 0.8874798
000070 99 2a 45 3f 46 f3 63 3f b9 2d 8a 3f 33 58 6d 3f
       0.77018124 0.8904308 1.0795203 0.92712706
000080 71 9b 7a 3f 05 f4 60 3f 7b bb 4f 3f 31 26 7c 3f
       0.97893435 0.87872344 0.8114545 0.98495775
000090 c6 c5 65 3f 6d 9a 6b 3f e8 65 64 3f 31 46 67 3f
       0.89754903 0.9203251 0.89217997 0.9034148
0000a0 ce 3e 51 3f a6 15 5b 3f 65 49 7d 3f 11 3c 7c 3f
       0.8173646 0.8557991 0.98940116 0.98529154
0000b0 e2 36 7c 3f d7 11 74 3f 71 5f 82 3f 9b 59 67 3f
       0.98521245 0.9533972 1.0185376 0.903711
0000c0 fb 14 4c 3f 56 2a 82 3f 38 19 6a 3f ae 1f 68 3f
       0.79719514 1.016917 0.9144473 0.9067334
0000d0 c3 64 69 3f a7 b0 87 3f 6f 4a 62 3f c6 4c 74 3f
       0.91169375 1.0600785 0.88394827 0.95429647
0000e0 7c 14 7a 3f 46 7f 5f 3f bc 3e 67 3f e9 1c 80 3f
       0.97687507 0.8730358 0.903301 1.0008823
0000f0 50 2b 66 3f c9 a2 53 3f 40 68 84 3f 52 b7 7e 3f
       0.8990984 0.82670265 1.0344315 0.99498475
000100 93 9c 64 3f f1 13 59 3f 4b f3 60 3f 76 ef 52 3f
       0.89301413 0.84796053 0.87871236 0.8239664
000110 3e a4 66 3f a6 5d 71 3f c3 fd 8e 3f c3 eb 7c 3f
       0.90094364 0.9428352 1.1171192 0.98797244
000120 a3 40 6c 3f 7c a0 75 3f 7d 28 6e 3f 9e 7b 7e 3f
       0.9228613 0.95948005 0.9303053 0.99407375
000130 ae 3d 80 3f 30 0b 84 3f ef 60 6e 3f 87 66 75 3f
       1.0018823 1.0315914 0.9311666 0.9585957
000140 61 be 55 3f 72 32 7c 3f d7 d1 69 3f 80 7e 7e 3f
       0.8349362 0.98514473 0.91335815 0.99411774
000150 f5 f4 5e 3f 00 f7 87 3f 69 cb 61 3f 80 ce 56 3f
       0.87092525 1.0622253 0.88201004 0.83908844
000160 da 23 70 3f 9d 9d 64 3f af 14 66 3f b1 81 8b 3f
       0.93804705 0.89303 0.8987531 1.0898954
000170 de e5 56 3f 3f 7e 7c 3f fc c6 51 3f 4a bd 58 3f
       0.839445 0.98630136 0.8194425 0.8466383
000180 fa 93 64 3f 74 e3 75 3f af a2 40 3f f5 ee 6c 3f
       0.89288294 0.9605019 0.75248235 0.9255212
000190 bc 7e 67 3f 2d 7a 74 3f 79 cf 59 3f fe 62 67 3f
       0.90427756 0.95498925 0.85082203 0.90385425
0001a0 ca 0f 6c 3f a6 cc 50 3f b5 dc 80 3f 1e b5 71 3f
       0.9221159 0.8156227 1.0067354 0.9441699
0001b0 81 8f 76 3f ac 09 73 3f e5 ae 41 3f 35 26 69 3f
       0.9631272 0.94936633 0.7565749 0.91073924
0001c0 6e e9 77 3f 9a b0 59 3f ea 18 75 3f 78 64 78 3f
       0.9684056 0.850351 0.9574114 0.97028303
0001d0 3e 9a 6a 3f 88 67 69 3f 3c ed 5d 3f 5a 1d 86 3f
       0.91641605 0.911736 0.86690116 1.0477707
0001e0 85 77 6f 3f ef c8 64 3f 91 d2 8b 3f cf 4b 83 3f
       0.9354175 0.893691 1.0923635 1.025751
0001f0 bf 42 76 3f cc d7 65 3f 88 45 5f 3f 22 72 54 3f
       0.96195596 0.89782405 0.8721547 0.8298665
000200 fb 30 5c 3f 75 1b 73 3f c4 d3 6e 3f f6 32 65 3f
       0.8601224 0.9496377 0.9329188 0.89530885
000210 3f cf 6a 3f bd c8 5e 3f dd 87 67 3f 84 54 62 3f
       0.9172248 0.8702505 0.90441686 0.8841021
000220 35 c4 63 3f f7 10 7e 3f e4 66 77 3f 4a 91 66 3f
       0.88971263 0.99244636 0.96641374 0.90065444
000230 34 47 70 3f e0 ae 5e 3f 74 96 6e 3f b8 eb 79 3f
       0.9385865 0.8698559 0.93198323 0.97625303
000240 9e c5 66 3f 2d 4d 8c 3f a4 ee 69 3f 4d 7b 70 3f
       0.9014529 1.0961052 0.9137976 0.9393814
000250 7a 2c 64 3f d3 d8 69 3f 9b 1b 44 3f 34 fc 6e 3f
       0.89130366 0.9134647 0.7660462 0.9335358
000260 90 e4 57 3f 81 16 57 3f 6f 0a 3d 3f ad bd 67 3f
       0.84333134 0.84018713 0.73844045 0.905238
000270 b0 69 85 3f 6e 04 72 3f 77 08 6b 3f e4 f2 4f 3f
       1.0422878 0.9453801 0.9180979 0.81229997
000280 c3 ee 44 3f f3 72 55 3f 81 45 52 3f 88 4d 65 3f
       0.7692682 0.83378524 0.82137305 0.8957143
000290 a2 e7 7e 3f 00 fc 7c 3f e1 47 60 3f 4e f2 5e 3f
       0.99572194 0.9882202 0.8760968 0.8708848
0002a0 b5 29 65 3f cb 09 65 3f 82 47 5e 3f a0 39 50 3f
       0.89516765 0.8946807 0.8682786 0.8133793
0002b0 68 2c 68 3f e9 ff 72 3f 4a 6e 69 3f 8e e4 7d 3f
       0.9069276 0.9492174 0.9118391 0.9917687
0002c0 58 10 79 3f 2b f9 6d 3f cb 38 62 3f f5 64 55 3f
       0.97290564 0.92958325 0.8836791 0.83357173
0002d0 9a 6e 7f 3f a1 10 6a 3f f7 5f 61 3f b8 c5 63 3f
       0.9977814 0.91431624 0.88037056 0.8897357
0002e0 84 e0 59 3f d8 33 77 3f 42 e5 72 3f 94 f4 76 3f
       0.8510821 0.9656348 0.9488107 0.96466947
0002f0 ac 34 87 3f 3e 9f 5f 3f 29 40 63 3f 28 fb 82 3f
       1.0562949 0.8735236 0.88769776 1.0232897
000300 bd 5a 7e 3f 05 e1 60 3f 04 fd 66 3f 6c 22 72 3f
       0.99357206 0.8784335 0.9022982 0.94583774
000310 dd a4 6a 3f bc 04 61 3f f3 39 54 3f 28 54 86 3f
       0.9165781 0.8789785 0.82900923 1.0494432
000320 70 54 67 3f ce 27 67 3f 50 36 80 3f 39 a1 82 3f
       0.90363216 0.9029511 1.0016575 1.0205451
000330 ea 38 5a 3f 11 ef 79 3f de cb 69 3f 00 12 61 3f
       0.85243094 0.9763041 0.913267 0.8791809
000340 5b 11 5a 3f e2 cf 56 3f 5e 6a 80 3f cf da 77 3f
       0.8518273 0.83910954 1.0032461 0.9681825
000350 d0 c0 7a 3f be ea 76 3f 08 c6 80 3f 20 7c 50 3f
       0.9795046 0.9645194 1.0060434 0.814394
000360 85 46 78 3f 73 8a 67 3f a1 22 80 3f f2 e0 83 3f
       0.96982604 0.9044563 1.0010568 1.0303023
000370 7e 07 83 3f e8 0d 42 3f 01 b2 6b 3f 3f 29 6f 3f
       1.0236661 0.7580247 0.9206849 0.9342231
000380 5a d7 71 3f ba c5 87 3f a4 f4 80 3f 3b 44 5f 3f
       0.94469225 1.0607216 1.0074658 0.87213486
000390 ec 40 80 3f 80 41 80 3f 63 09 42 3f 42 0e 76 3f
       1.0019813 1.0019989 0.75795573 0.96115506
0003a0 f1 5f 65 3f 3e 36 73 3f a9 63 77 3f 4e e1 68 3f
       0.8959952 0.9500464 0.96636444 0.9096879
0003b0 7e 69 75 3f 63 77 72 3f a5 d3 7e 3f 1d 50 6e 3f
       0.95864093 0.9471342 0.99541694 0.93090993
0003c0 8d 9a 6e 3f 9a 57 78 3f e1 73 67 3f 53 ab 70 3f
       0.93204576 0.9700867 0.9041119 0.9401142
0003d0 31 05 74 3f a9 98 50 3f dc a3 67 3f 6d c6 70 3f
       0.9532042 0.8148294 0.90484405 0.94052774
0003e0 4d ca 7d 3f 60 8e 82 3f 75 f6 85 3f 60 68 81 3f
       0.9913681 1.0199699 1.0465838 1.0109978
0003f0 91 b1 6c 3f f1 e2 51 3f c5 bc 72 3f e6 1f 73 3f
       0.92458445 0.8198691 0.9481929 0.9497055

network.1.bias f4 [256]
000000 ac a3 20 be a8 da ed bd aa c6 ee bd e9 a8 37 bd
       -0.15687436 -0.11613971 -0.11658986 -0.04483882
000010 29 5b 74 3b 5e d7 b2 bd f1 7f a6 3d bd 5f cf bd
       0.003728578 -0.08732484 0.08129872 -0.101256825
000020 28 b3 49 be 9f 56 df bd a9 88 b6 bd 6b 9c 37 bd
       -0.19697249 -0.109051935 -0.089127846 -0.044826906
000030 16 cc 37 be 28 d2 26 bd 7d 3f 53 bd 15 5a a0 bd
       -0.17948946 -0.040727764 -0.05157422 -0.07829682
000040 c6 6c 2f be d6 1c 09 bb ec 44 0c be 9b 3e 75 bd
       -0.17131338 -0.0020921729 -0.13698167 -0.05987416
000050 16 09 68 bd 49 87 1c be 6f 16 f5 bd ed 0a 0c bd
       -0.05664929 -0.15285982 -0.119671695 -0.034190107
000060 86 8d 6d bd ec f3 cd bd 35 fe 41 bd 71 12 a9 bd
       -0.057996295 -0.1005629 -0.04736157 -0.082554705
000070 cb 10 30 be a6 df 75 be dd d3 61 bd 8d cb 3e be
       -0.17193906 -0.24011096 -0.05513369 -0.18632336
000080 b2 82 d2 bd 72 7e 00 be 33 8a de bd 05 f1 53 be
       -0.102788344 -0.12548235 -0.10866203 -0.2069741
000090 89 a6 ca bd 19 98 e7 bd 80 1a 03 be 26 38 dc bc
       -0.09895045 -0.11308307 -0.12803078 -0.026882242
0000a0 20 08 c0 bd 9c ca f2 bd f2 aa 89 bd 41 cb 28 be
       -0.0937655 -0.11855051 -0.06722058 -0.16483785
0000b0 95 99 dd 3c 0e b6 cf bd 44 c1 88 bd 79 fc 6a bd
       0.027050773 -0.10142146 -0.066774875 -0.057369683
0000c0 37 08 c0 bd 46 46 f7 bd 5c d9 f1 3c d3 c5 1c be
       -0.09376567 -0.120739505 0.02952259 -0.15309839
0000d0 ef f4 96 bd d5 be 50 bd 98 f4 f2 bd 51 56 1a bd
       -0.07370936 -0.05096324 -0.11863059 -0.037679974
0000e0 f3 d4 2c be 09 24 e8 bd d2 5f 83 bd 4a a8 17 bd
       -0.16878109 -0.11334998 -0.06414761 -0.037025727
0000f0 08 72 91 bd 61 8d 0e be c6 79 7a bd 7f 93 87 be
       -0.07101828 -0.1392112 -0.06115129 -0.26479718
000100 f3 2e ff bd 8b 1e c9 bd 80 fc 88 3d 39 93 e1 bd
       -0.12460127 -0.09820279 0.066887856 -0.110144086
000110 c2 6e 01 be 0d f4 28 bd 3a f5 3c bd 7c a4 a4 bd
       -0.12639907 -0.04124837 -0.046132304 -0.080391854
000120 5a cc a0 bd 5b 9d d6 3a 4c e1 b7 bc dd 27 05 be
       -0.07851477 0.00163738 -0.022446297 -0.13003488
000130 d4 7c 06 be 0b 0d e5 3b c3 ac bf bd 85 9f 23 bb
       -0.13133556 0.0069900802 -0.093591236 -0.0024966907
000140 4f 9b 5d bd 28 d7 aa bd 1a d3 5c be 0e 46 2a 3d
       -0.054103192 -0.08341819 -0.21564904 0.041570716
000150 0f 35 d3 bd d2 e2 b3 bc c5 9b 6b bd f3 93 e9 bd
       -0.103128545 -0.021958742 -0.0575216 -0.11405172
000160 07 e5 46 bd 09 f8 1d be 38 e5 15 be 95 ad 64 bd
       -0.04855826 -0.15426649 -0.14638221 -0.055829603
000170 68 16 10 bd 1d 39 fc bd cc fb ce bd 55 7a bf bd
       -0.03517762 -0.12315581 -0.1010662 -0.09349505
000180 35 72 12 be c4 76 23 3d 72 4d 19 be a9 b5 7b bd
       -0.14301379 0.039908186 -0.1497095 -0.06145254
000190 a4 18 3c bd 3d a2 04 be ff 8e 81 bd 15 d7 23 be
       -0.045921937 -0.12952514 -0.063261025 -0.16000016
0001a0 4f 79 67 3d d6 6a 1b be 98 64 1e be 8e 72 17 be
       0.056512173 -0.15177473 -0.15468061 -0.14789793
0001b0 a0 be 18 be 74 20 56 bd 40 7c e9 bd 83 8d b5 bd
       -0.14916468 -0.052277043 -0.11400652 -0.08864882
0001c0 f9 dd 62 bd 69 0a 4a be c7 d3 a8 bd 3b b6 f9 bd
       -0.05538747 -0.19730534 -0.08243518 -0.12192961
0001d0 da 9a ba bd b1 5a 53 bd 6a 9f 1e be 81 ad 88 bd
       -0.09111567 -0.051600162 -0.15490499 -0.06673718
0001e0 b4 19 c9 3c b0 a4 1b be 0c ce b1 bd fe b8 00 3c
       0.024548389 -0.15199542 -0.086818784 0.007856606
0001f0 37 3e d6 bd 96 bb 39 be 24 30 6d be 37 0b 07 be
       -0.10461085 -0.18137965 -0.23162895 -0.13187872
000200 95 63 b2 bd c1 0c 1f be 96 2e a6 bd c7 0d b3 bd
       -0.087104 -0.15532209 -0.08114354 -0.08742862
000210 86 c1 c4 bd e7 52 8d bc b2 a4 38 be 10 92 75 be
       -0.09607224 -0.017251445 -0.18031576 -0.239815
000220 f3 ac f4 bd c0 63 fd bd b4 a3 15 be 75 69 8a bd
       -0.1194705 -0.123725414 -0.14613229 -0.067583956
000230 8b 9c 68 be da 1c 12 be 8a 45 aa bc e9 81 c1 bd
       -0.22715966 -0.14268818 -0.020785112 -0.094486065
000240 9f 8f 26 be f7 7f 46 be 54 e1 b8 bd cb 24 25 be
       -0.16265725 -0.19384752 -0.09027353 -0.16127317
000250 14 fc ff bd ff 3d f3 bc 62 b1 7a bd 26 d9 d6 bd
       -0.12499252 -0.029692648 -0.06120432 -0.104906365
000260 f7 c4 fe bd f1 e1 89 bd 8a 6d fc bd b3 16 83 bd
       -0.12439912 -0.06732548 -0.123255804 -0.06400814
000270 ab 4a 3b be ff 5f ef bd 64 ec ad bd cd f0 42 be
       -0.18290202 -0.11688232 -0.084923536 -0.1903717
000280 fb 46 35 be 3c 9b 91 bd fe 5d b5 bd 69 68 5d bd
       -0.17702858 -0.07109687 -0.08855818 -0.05405465
000290 f3 66 97 3c 2f 02 41 3d 59 69 5a bd 08 3a 60 be
       0.018481707 0.047121223 -0.053323124 -0.21897137
0002a0 d8 31 00 be 0c 5e 68 be f3 d9 f0 bd 61 fa f3 bd
       -0.12519014 -0.22692126 -0.117603205 -0.1191299
0002b0 ae 43 05 bd 16 80 6f bd 4a 1f d8 bc b0 00 5d bd
       -0.032535248 -0.05847176 -0.026382107 -0.053955734
0002c0 0b 39 18 3b 7d 3b 8e 3d 5f 9c 09 be 58 b2 e0 bc
       0.002322736 0.0694494 -0.13438557 -0.02742879
0002d0 53 e3 41 bd 95 35 cd bd 3d a2 9b be 88 0f f1 bc
       -0.047335934 -0.100199856 -0.30397215 -0.029426351
0002e0 d3 16 09 be 06 b9 f6 bc c9 eb 42 bd 51 87 1f 3d
       -0.13387613 -0.030117523 -0.047588143 0.038947407
0002f0 26 3a 9a bd 40 49 c9 bd 32 7b 07 be 1e 5b 5b bc
       -0.07530622 -0.098284245 -0.13230589 -0.013388423
000300 cf ad d0 bd a2 d7 10 3a 94 2b 03 be c6 93 b4 bd
       -0.10189401 0.0005525296 -0.12809592 -0.08817248
000310 dd 24 e8 bd e0 fa 18 be 0a b1 db bd f0 13 92 bc
       -0.11335156 -0.14939451 -0.10727127 -0.017831773
000320 dd a6 00 be 15 67 2f be 7e 02 42 bd 9f 1d dd 3d
       -0.12563653 -0.17129166 -0.047365658 0.107966654
000330 72 ec 0c be 92 90 bb bd c4 a2 4c bc c9 fd 2b bd
       -0.13762072 -0.09158434 -0.012489978 -0.041990075
000340 b2 7d 82 bd d3 2e 10 be 07 32 0e bd c7 2f e8 bd
       -0.06371631 -0.14080362 -0.03471568 -0.11337238
000350 07 9c ca bd 04 e1 e7 bd cc 15 6e bd bc b7 50 be
       -0.09893041 -0.11322215 -0.058126256 -0.20382589
000360 dd 5e 42 bd 45 57 e0 bd 17 4d aa bd 48 c9 a2 bd
       -0.04745375 -0.10954145 -0.08315485 -0.079485476
000370 26 43 2e bd 5b 7a 0b be 14 da 90 bc 82 d5 ee bd
       -0.042544506 -0.13620894 -0.017682113 -0.11661817
000380 f7 e6 30 be 41 f3 20 be dd dc 7a bd 42 9b 13 bd
       -0.17275606 -0.15717794 -0.061245788 -0.036036737
000390 34 1f 96 bd d4 90 f9 bc f0 67 1e be 44 43 a5 3d
       -0.0733017 -0.030464567 -0.15469337 0.080694705
0003a0 51 88 3f be 68 d4 f0 bd 43 6d d9 bd a2 89 d1 bd
       -0.18704344 -0.11759263 -0.10616543 -0.102313295
0003b0 1a 53 1d be d7 36 65 3a c1 e1 01 be 40 6b 19 be
       -0.15363732 0.00087438285 -0.12683775 -0.14982319
0003c0 0a d9 0e be ac a5 35 bd 0e 36 4b bd b9 72 2a be
       -0.13949981 -0.04434745 -0.049612097 -0.16645326
0003d0 73 28 0f be 5f 75 3b be b0 3d ca bd ff 06 c5 bd
       -0.13980274 -0.18306492 -0.09875047 -0.09620475
0003e0 45 1d 20 be 36 8f ec bd c0 00 9f bd 7e 58 13 3d
       -0.15636165 -0.11550753 -0.07763815 0.035973065
0003f0 0c 43 61 be 4e 9e 3f be 33 5e 51 be d4 5c 61 bc
       -0.21998233 -0.18712732 -0.2044609 -0.013755042

network.1.running_mean f4 [256]
000000 93 09 fe bd 65 73 02 bd 12 20 6c bd 19 16 12 be
       -0.1240417 -0.03184833 -0.057647772 -0.14266242
000010 19 f6 c7 bd df fb db 3d 2a 1c 9f 3d 75 c8 08 be
       -0.09763736 0.107414 0.07769044 -0.13357718
000020 03 5f 0e 3e 38 35 a1 3b fe f4 8b 3d c0 3b 13 3e
       0.13903432 0.0049196742 0.06833838 0.14378262
000030 aa fc 49 3d a6 b1 f7 3d 76 31 2b 3e 40 ab 14 be
       0.049313225 0.120944306 0.16718087 -0.14518452
000040 0b fc bd 3d b6 f9 35 bd f0 1f 3b 3e 2e 2e 08 be
       0.09276589 -0.044427596 0.18273902 -0.13298866
000050 24 6c 4a 3e 71 cb 20 be c7 10 0f be f1 c7 d7 bb
       0.19767815 -0.15702607 -0.13971244 -0.006585114
000060 af 64 79 bd ca d6 8f bd b4 a4 3b 3c e0 a6 c5 3d
       -0.060887035 -0.0702339 0.0114528425 0.096509695
000070 b9 3a 38 bd bc f9 45 3d 00 b9 6b bd 23 db f9 3d
       -0.044977877 0.04833387 -0.057549477 0.122
000080 a6 b5 be bc 3c cc 25 be 8f 59 f2 3d 7d 47 e1 bd
       -0.023279976 -0.1619119 0.11833488 -0.109999634
000090 ea 7c 27 3e a4 02 28 3d 2b 40 15 be 2b 9b 52 bd
       0.16356245 0.041018143 -0.1457526 -0.05141751
0000a0 4c a3 a2 bd b7 91 38 3e 87 18 27 bc 34 10 bd 3a
       -0.07941303 0.18024336 -0.010198719 0.0014424385
0000b0 d8 0a 6b 3d 86 00 7b 3e c4 1d 9e bd 4d 46 88 3d
       0.05738339 0.24511918 -0.07720521 0.06654034
0000c0 e8 9f b1 3d 75 05 a6 bd 7f 50 61 3d 94 85 3d bd
       0.08673078 -0.081065096 0.055008408 -0.04626997
0000d0 7f 44 d2 3c ca 2b 64 bd 98 04 58 be 2b 8e b3 3e
       0.025667427 -0.055705823 -0.21095502 0.35069403
0000e0 0f af b1 bd f2 16 2b 3c f2 18 90 3d 52 93 a6 bd
       -0.08675968 0.010442482 0.07036008 -0.08133568
0000f0 8a 41 bf bd 7a df cf 3d 13 c0 82 bc 54 17 1e 3e
       -0.093386725 0.10150047 -0.015960729 0.15438586
000100 ce 9e 46 bd f0 3d 25 be 1c 8b cf bb af 1f b9 bb
       -0.04849129 -0.16136909 -0.006333722 -0.005649529
000110 4c bd db 3c eb 35 36 3d 54 80 89 3d fd 2b 3c be
       0.026823662 0.044485014 0.0671393 -0.18376155
000120 95 59 2b 3c 41 da 69 bd 10 09 41 3e 75 2c 4a 3e
       0.01045837 -0.05709291 0.18851113 0.19743522
000130 58 9b 0f 3d ff a0 b1 3d ea ae a9 bd 25 11 1d be
       0.035060257 0.08673286 -0.08285315 -0.15338571
000140 20 9f 99 bc a6 21 67 bc 4a d2 4b 3e 24 7d 8a 3d
       -0.018752635 -0.0141071435 0.19904438 0.0676215
000150 88 a0 b3 3d cc c6 65 3e e5 13 d4 bd 03 74 ea bc
       0.08770853 0.22439116 -0.10355357 -0.028619772
000160 6e 13 f2 3b a3 55 c2 3d 3c 05 b9 bc a2 32 43 be
       0.00738757 0.0948899 -0.022585504 -0.19062284
000170 d2 ba 7a 3e a5 03 34 bd 82 18 9d 3d 41 1d 9c 3d
       0.24485329 -0.04394879 0.0767069 0.07622767
000180 e5 ba dd 3c 15 7e 10 be 7c 53 1d be 36 b5 50 be
       0.027066657 -0.14110596 -0.15363878 -0.20381626
000190 16 46 2e bd 6b 08 dc bd 87 a1 0c 3d a6 25 65 bc
       -0.042547308 -0.10743793 0.034333732 -0.013986027
0001a0 e3 8e ce 3d 26 3d 64 3e cd db d0 3b 86 ee 3d 3e
       0.10085847 0.22288951 0.0063738585 0.1854802
0001b0 53 03 d0 bd 27 5c 3c 3c 68 f9 49 bd 3c 94 d5 bd
       -0.10156884 0.01149658 -0.049310118 -0.10428664
0001c0 09 89 70 bd 46 1c 1b 3d c6 a6 32 3d 3b 41 76 3e
       -0.058724437 0.03786876 0.04361608 0.24048321
0001d0 08 2f 0b 3e e5 11 09 be a3 0b 94 be c9 b6 4f bc
       0.1359216 -0.13385732 -0.28915128 -0.012677857
0001e0 d9 2b f0 3c f5 19 2e 3d 20 3b f8 bd a0 fd 24 3e
       0.029317783 0.042505223 -0.12120652 0.16112375
0001f0 b7 0b 03 bd ae 93 7b 3c 3f f1 49 3e c4 c7 54 3c
       -0.031993594 0.015355034 0.19720934 0.012987081
000200 8f 49 9f 3d 65 d3 43 3e ea 7a 52 3c 19 fd 07 be
       0.07777702 0.1912361 0.012846688 -0.13280143
000210 c2 87 5b ba 09 8e 16 be 01 99 07 be 57 53 d0 3c
       -0.00083744165 -0.1470262 -0.1324196 0.025430365
000220 42 1a 33 bd 70 cf 1d bc fd 7f 8b be 3d 52 5a bd
       -0.043726213 -0.0096319765 -0.27246085 -0.053301085
000230 9b 82 7b 3c 55 b0 ed bd 31 46 2d 3e 88 a6 2f be
       0.015350963 -0.11605898 0.16921307 -0.1715337
000240 d3 a7 b3 3c f2 1a 81 bd d3 06 92 be 0a 92 f1 bd
       0.02193061 -0.063039675 -0.2852083 -0.11795433
000250 a8 dd 07 be cd d6 79 3d 50 80 aa 3d a0 19 bb bc
       -0.13268149 0.060995866 0.08325255 -0.022839367
000260 0b 72 9b bd db 3b 0a 3c 77 16 4f 3e 86 2f 38 be
       -0.07590111 0.008437122 0.20223413 -0.17986879
000270 b1 b2 a8 be 8d 01 76 3d ea e7 80 bd 66 39 36 bd
       -0.3294883 0.060060073 -0.06294234 -0.044488333
000280 8e 18 cc 3d de e4 14 be 8a 82 45 bb 23 24 a2 3d
       0.09965621 -0.14540431 -0.0030137622 0.07917049
000290 03 07 76 bd cb a0 22 3c 26 d5 2e 3d fa a6 dd 3d
       -0.06006528 0.009926031 0.042683743 0.10822864
0002a0 c7 31 b1 3d 7b 9b 74 3e 47 3d a1 bd a5 8d 52 3d
       0.086520724 0.23887436 -0.07873016 0.051404614
0002b0 d6 65 36 be 62 0e b1 bd 7b 24 db bd 93 f2 2a 3e
       -0.17812285 -0.086453214 -0.107003175 0.16694097
0002c0 22 f5 f9 bd 00 02 3c bd 82 ba 14 be 0b 84 0c 3e
       -0.122049585 -0.045900345 -0.14524272 0.13722245
0002d0 42 48 33 3e 16 fa 91 bd cf e1 3a be 33 cb a6 3c
       0.17508033 -0.07127778 -0.18250202 0.020360565
0002e0 25 33 59 be 35 e1 d7 3d b6 b7 7f bd 5c a8 70 3d
       -0.21210916 0.10541002 -0.06243106 0.05875431
0002f0 0e 0d 27 bd f5 5d d2 3d 42 cc aa bd ae fd d3 bd
       -0.040783934 0.10271827 -0.0833974 -0.1035112
000300 d6 51 15 bd 07 43 a6 bd 7f 08 b2 3d f0 0c 46 be
       -0.036454998 -0.08118253 0.08693027 -0.19340873
000310 6f a0 e2 bd 15 50 27 3e 84 76 4a be ea 56 93 3d
       -0.110657565 0.16339143 -0.19771773 0.07194312
000320 1e ae e3 bd 2a 75 18 3e 0f 15 da 3d 86 0b e2 3b
       -0.111171946 0.14888445 0.10648548 0.0068983464
000330 34 79 e2 ba 47 82 5d 3e d3 45 12 3c 54 50 35 be
       -0.0017278553 0.21631728 0.00892778 -0.17706424
000340 ed 69 4b bd dd 9e 30 be 04 da 0c 3e 48 93 1a 3d
       -0.049661566 -0.17248102 0.13755041 0.037738115
000350 b8 a0 77 bc 78 0b 62 be a8 7d ba 3a fb 7a 01 be
       -0.015114002 -0.22074687 0.0014228122 -0.1264457
000360 93 10 f3 3d 75 37 2a 3e 76 ff 01 be 7e a8 fb 3d
       0.11868396 0.16622718 -0.12695107 0.12287997
000370 d2 98 0b 3e 14 c7 3c 3d 2c 56 52 3e 72 10 c7 3d
       0.13632515 0.046088293 0.20540684 0.097199336
000380 46 de 2b be a4 15 94 bd 37 07 90 bc d6 b6 91 3c
       -0.1678401 -0.0723069 -0.017581565 0.017787378
000390 e9 21 32 3d f3 84 95 bd f6 90 48 bb c2 c1 2a be
       0.04348937 -0.07300749 -0.0030603982 -0.16675475
0003a0 8c 7d 06 3e 20 73 68 3e 28 77 e0 bd 61 47 03 bd
       0.1313383 0.22700167 -0.10960227 -0.032050494
0003b0 ea cc 30 3e a2 73 c1 bd 52 13 47 be e4 cb 01 3e
       0.17265669 -0.09445883 -0.19440964 0.12675434
0003c0 dc 2a a9 bc b8 c7 14 bd 58 ff 25 3e 87 96 01 be
       -0.02065032 -0.03632328 0.16210687 -0.12655078
0003d0 ae 6d 40 3d f5 e5 4e 3c cb c7 06 be 94 ab cb 3d
       0.0469796 0.012628068 -0.13162152 0.09944835
0003e0 c1 d4 c6 3c f9 d3 a4 bc f8 af 26 3e 72 a6 68 3e
       0.02427137 -0.020120608 0.16278064 0.22719744
0003f0 fd 32 04 3e 02 b4 9b bc e1 27 95 bd e6 59 fb bd
       0.12910075 -0.019006733 -0.07282997 -0.12273006

network.1.running_var f4 [256]
000000 13 95 cf 3d 51 16 4e 3e 46 f7 a2 3d 19 0f ed 3d
       0.101358555 0.201257 0.0795732 0.11575145
000010 87 dc 07 3e 1f ba d5 3d ea fd ed 3d 51 7e 10 3e
       0.13267718 0.104358904 0.11620696 0.14110686
000020 88 20 0e 3e 7c 55 87 3d 59 c7 07 3e 90 8c 06 3e
       0.13879597 0.06608102 0.13259639 0.13139558
000030 0d ae 16 3d ba ca d0 3d d0 5d 22 3e 82 ca fa 3d
       0.03678708 0.10194917 0.15856099 0.122456565
000040 df 0e 6f 3e c5 4a 00 3e ff d6 00 3e 41 8a e6 3d
       0.23345517 0.12528522 0.12582015 0.112568386
000050 0a e2 a1 3d ed ff 06 3e 1d d5 6c 3e ca af 89 3d
       0.07904442 0.13183565 0.23128171 0.06722982
000060 d7 a3 d8 3d ac 6b b6 3d 38 7b e7 3d 41 ad f8 3d
       0.10578125 0.089072555 0.11302799 0.121424206
000070 c9 cf a9 3d 07 a2 79 3d a4 37 b7 3d d5 d8 97 3d
       0.08291585 0.060945537 0.089461595 0.07414404
000080 27 b8 b0 3d 68 31 f8 3d 7b 8d 62 3e 29 19 ac 3d
       0.08628874 0.121187985 0.22124283 0.084032364
000090 a1 9d 29 3e 33 f7 dd 3d 3c cd be 3d 53 0b a4 3d
       0.16564037 0.10838165 0.09316489 0.080099724
0000a0 ae fc 09 3e 8d e8 09 3e 53 10 f6 3d d8 d4 ba 3d
       0.13475296 0.13467617 0.12014832 0.09122628
0000b0 7f 41 07 3e e1 27 cb 3d 03 d3 e5 3d 4c 5f 7a 3e
       0.13208579 0.09919716 0.11221888 0.24450415
0000c0 33 cf d1 3d d2 df de 3d 7e 29 fb 3d f8 85 44 3e
       0.10244598 0.10882534 0.122637734 0.1919173
0000d0 bb 94 47 3e e8 fe 5a 3d 81 6d 6a 3d ce 91 b4 3d
       0.1949033 0.053465754 0.057233337 0.088168725
0000e0 66 7d 7b 3d 58 31 69 3e a3 be aa 3d 05 a1 96 3d
       0.061398886 0.2277273 0.08337142 0.07354931
0000f0 9f c6 6c 3e ee 4b 10 3e 78 a3 8b 3d bb 54 fb 3d
       0.23122643 0.14091465 0.068182886 0.122720204
000100 8a be dc 3d cd 61 aa 3d bf 98 54 3e 06 55 da 3d
       0.1077853 0.08319435 0.20761393 0.10660748
000110 ba ba 9e 3d d5 de 02 3e 84 a5 94 3d 70 fe d0 3d
       0.07750459 0.12780316 0.07258132 0.1020478
000120 f4 e4 03 3e 37 3e c2 3d 9f cb 46 3d eb 62 c0 3d
       0.12880307 0.09484523 0.048534032 0.09393867
000130 42 e5 b7 3d 39 9d e0 3d 4a 25 cf 3d 27 49 04 3e
       0.08979274 0.10967488 0.10114534 0.1291853
000140 fc 0a d9 3d 26 5e e1 3d b4 41 b6 3d 4b 8c f1 3d
       0.10597798 0.110042855 0.088992506 0.11794337
000150 f4 a1 bc 3d 46 3e 3c 3e 64 4f 15 3e 47 b4 91 3d
       0.092105776 0.1838313 0.14581066 0.07114463
000160 21 64 42 3e fa be 75 3d e2 e7 06 3e 31 85 db 3d
       0.18983509 0.059996583 0.13174394 0.107187636
000170 b5 a8 41 3e 19 e4 dd 3d 6c 70 9c 3e 8f f6 14 3e
       0.18912013 0.10834522 0.3055452 0.1454718
000180 de 81 e9 3d 2e 41 c0 3d 26 07 2c 3e d6 03 9b 3d
       0.11401723 0.09387432 0.16799602 0.07569091
000190 1b 25 f8 3d d6 03 f8 3d 8d 77 c2 3d 7d c7 0d 3e
       0.12116452 0.12110107 0.09495459 0.1384563
0001a0 07 5f a0 3d 35 5d 17 3e d6 8a 2d 3e b7 20 e3 3d
       0.07830625 0.1478165 0.16947493 0.11090224
0001b0 6f 78 1e 3e d5 66 80 3d 44 ed e4 3d 7f ce e0 3d
       0.1547563 0.06269614 0.11178067 0.10976886
0001c0 2f 38 85 3d c3 d6 25 3d da b9 d9 3d d9 d6 cb 3d
       0.06504857 0.040488016 0.106311515 0.09953088
0001d0 19 8d 85 3d 2f 14 d5 3d b0 7b ec 3d 89 68 36 3e
       0.06521053 0.1040424 0.11547029 0.17813314
0001e0 83 5a 9e 3d a3 3b 1b 3e 9a cf 95 3d 8b 32 4d 3d
       0.077321075 0.15159468 0.073149875 0.05009703
0001f0 26 ab 5b 3e e9 01 6c 3d 20 d3 fa 3d 21 f4 0d 3e
       0.21452007 0.05761901 0.122473 0.13862659
000200 77 6f 8c 3d d1 d5 9f 3d 5a d9 95 3d eb d2 eb 3d
       0.06857198 0.07804454 0.07316847 0.11514839
000210 bc f5 8d 3d 2a 83 b9 3d 41 8e ff 3d 40 71 a0 3d
       0.06931636 0.09058221 0.12478305 0.07834101
000220 44 c1 ff 3d d5 d1 34 3d d4 de ff 3d de 70 05 3e
       0.12488034 0.044145424 0.12493673 0.13031337
000230 e2 7e a6 3d 53 dd 67 3d 80 06 22 3e a3 81 5c 3d
       0.0812967 0.056607556 0.15822792 0.05383457
000240 49 86 b0 3d dc 40 9f 3d 3a e0 fe 3d 49 d2 b8 3d
       0.08619363 0.07776043 0.124451116 0.09024484
000250 63 9c 00 3e 1c 9c 36 3e 01 c2 17 3e d4 3c e5 3d
       0.12559657 0.17832989 0.148201 0.11193243
000260 cd a7 04 3e d6 b9 a0 3d 4d f9 3c 3e fb 40 59 3d
       0.12954636 0.078479454 0.18454476 0.053040486
000270 1d 6e a7 3d c9 0b b9 3d ae 54 11 3e 40 8d 0e 3e
       0.08175299 0.09035451 0.14192459 0.1392107
000280 78 61 72 3e 5d 8d fb 3d c3 49 bc 3d 1e e0 1b 3e
       0.23669994 0.12282822 0.091937564 0.15222213
000290 3d 17 0f 3e ab d8 e1 3d d8 dd 61 3e 48 20 12 3e
       0.13973708 0.11027654 0.22057283 0.14270127
0002a0 0a d2 d0 3d 3a be ac 3d 9c f6 e7 3d 58 a0 f0 3d
       0.10196312 0.0843472 0.11326334 0.11749333
0002b0 95 93 f4 3d 08 d9 29 3e b4 14 03 3e b4 db ce 3d
       0.119422115 0.16586697 0.12800866 0.10100499
0002c0 da 0d ac 3d 89 67 51 3e d2 91 e5 3d c3 0b 66 3e
       0.084010795 0.20449652 0.11209454 0.22465424
0002d0 c4 3f 63 3d cb 6c c2 3d 6f b5 34 3e 4a d0 04 3e
       0.055480734 0.09493407 0.17647336 0.12970081
0002e0 5e 40 1a 3e 00 e6 9a 3d 25 e8 73 3d dd 2a f0 3d
       0.15063617 0.075634 0.059547562 0.117269255
0002f0 c7 a6 04 3e 22 f7 61 3e 5a 5d db 3d 03 88 03 3e
       0.12954246 0.2206693 0.10711165 0.12844853
000300 fb 46 91 3d b3 67 e4 3d 2f 66 42 3e dc 54 db 3d
       0.070936166 0.111525916 0.18984292 0.10709545
000310 27 85 bd 3d a0 1a 31 3e 2a ae bb 3d 07 d2 23 3e
       0.092539124 0.17295313 0.091640785 0.15998088
000320 7c 40 19 3e 4e bc 8e 3d 80 3b 9f 3d 0b 37 01 3e
       0.14966005 0.0696951 0.077750206 0.12618653
000330 26 19 b6 3d e3 65 8e 3d 36 ce e9 3d 78 57 28 3e
       0.088915154 0.06953027 0.11416285 0.16439617
000340 72 68 63 3e 30 a5 c6 3d a3 7a e7 3d 10 cc d2 3d
       0.22207811 0.09699476 0.11302688 0.10292828
000350 fa ac 8d 3d bb 3a 2e 3e 91 63 dd 3d 93 0b 09 3e
       0.06917758 0.17014591 0.108100064 0.13383321
000360 7b 8b fc 3d 44 52 06 3e a1 d5 0c 3e 5e 0e 16 3e
       0.12331291 0.1311732 0.13753368 0.14653918
000370 e4 51 e9 3d c9 63 16 3e 3f 32 94 3d 98 53 8b 3d
       0.113925725 0.14686503 0.07236146 0.068030536
000380 bd 6c 27 3e b2 6b ac 3d 52 23 c8 3d f8 e5 9c 3d
       0.16350074 0.08418979 0.09772362 0.076610506
000390 a1 7a 9a 3d ee 9e 1c 3e 11 39 9b 3d 5c 0a 40 3e
       0.07542921 0.15295002 0.07579244 0.18753952
0003a0 a3 0a cb 3d 87 cf 85 3d 3c a1 c3 3d 83 bd 30 3e
       0.09914138 0.06533723 0.095522374 0.17259793
0003b0 ca 37 ac 3d a6 42 be 3d e1 e4 ff 3d 8c 7e b7 3d
       0.084090784 0.09290056 0.12494827 0.08959684
0003c0 9f 93 c4 3d e2 42 2b 3e 98 9f ec 3d 78 1b 92 3d
       0.09598469 0.16724733 0.115538776 0.071341455
0003d0 c5 40 75 3d 67 7d 3a 3e b8 a5 e5 3d ab 41 2b 3e
       0.059876222 0.182119 0.11213249 0.16724269
0003e0 b3 7a 7e 3d 13 c6 84 3d 9f d0 d5 3d 11 d3 b7 3d
       0.062128734 0.06483092 0.10440182 0.089758046
0003f0 96 27 d0 3d 8f 8a 39 3e 47 0f d4 3d 4e 41 56 3d
       0.101638004 0.18119262 0.103544764 0.052308373

network.4.weight f4 [128, 256]
000000 bd ca 00 bd 57 21 87 3d 91 3c 01 be 4f ad 1b 3d
       -0.031443346 0.06598156 -0.1262076 0.038007077
000010 78 6b 14 be e3 1e e6 3a c9 e4 1b 3d 2a ba d8 bc
       -0.14494121 0.0017556812 0.038059983 -0.026455957
000020 57 fa 10 3d d7 0e 0d be ed 7e 26 bd 94 f3 78 3c
       0.035394993 -0.13775192 -0.04064839 0.015194792
000030 58 24 b6 bd a3 f4 cf 3d ba 0d 0c bd e4 ef 22 bc
       -0.08893651 0.101540826 -0.03419278 -0.00994489
000040 f5 99 8d 3c 4b d2 70 3d e2 14 d1 3d ea 70 92 bd
       0.017285326 0.0587943 0.10209061 -0.07150443
000050 25 05 29 3d 33 e9 d2 3d 4c 6a 4f 3d 04 8a e1 ba
       0.04126467 0.102983855 0.050638482 -0.001720727
000060 96 10 8c bd 7e c7 b3 3d e6 c1 b8 bb f0 59 95 bd
       -0.06839101 0.087782845 -0.005638349 -0.07292545
000070 6e 67 16 3d 15 d2 37 3c 32 a4 38 bc a5 9c 97 3d
       0.036719732 0.011219521 -0.011269616 0.074029244
000080 93 41 25 3e 5a 72 26 3d 41 28 45 3d 21 2f 88 bd
       0.16138296 0.040636398 0.048134092 -0.06649614
000090 f3 67 93 3d 84 1f 6d bb 48 82 60 3d e1 0a ab bd
       0.07197561 -0.0036182115 0.054811746 -0.08351684
0000a0 02 ef 31 3d af d3 b2 3d cb 8c 82 bd 72 dd a3 bc
       0.043440826 0.08731782 -0.063745104 -0.020003054
0000b0 27 4e 8d bc c6 30 30 bd e0 7e 09 be 45 6b 43 3d
       -0.01724918 -0.043015264 -0.13427305 0.047709722
0000c0 40 cd aa 3b 68 36 ef 3c 46 42 65 bd b5 98 8a 3d
       0.005212456 0.029200748 -0.055971406 0.06767408
0000d0 44 16 02 bd 85 97 fd bc f5 32 1d 3d ca b6 59 3d
       -0.031759515 -0.03095604 0.038378675 0.053152837
0000e0 58 70 39 be e7 10 ba 3d 41 f9 79 bc 67 a2 65 bb
       -0.18109262 0.09085255 -0.015257181 -0.0035039426
0000f0 2e a5 c7 bd 1b 10 69 bd d1 00 04 3d d8 2f d9 3d
       -0.097483024 -0.056900125 0.03222734 0.106048286
000100 c9 c9 84 3c c5 4f 59 3d 00 d7 0c bd 57 3a 78 3c
       0.0162095 0.05305459 -0.034384727 0.015150628
000110 a4 e1 17 bd 69 d5 77 bd 13 81 6a 3c 50 b8 22 bc
       -0.037080422 -0.06050626 0.014313 -0.009931639
000120 9d 29 61 3d 97 be 35 3d a0 34 45 bd a3 47 e6 3d
       0.054971326 0.044371214 -0.04814589 0.11244132
000130 cc ed 24 3d f1 a8 8e bc 1b 68 bf 3a d2 eb 50 bd
       0.040265843 -0.017414542 0.0014603169 -0.051006146
000140 ef c5 95 bc ba 81 b7 3d 0f 04 bc 3c 9f dc 10 bd
       -0.018282859 0.0896029 0.022951154 -0.03536665
000150 54 4f 36 3d a3 6a 5f bc 67 38 6e bc 43 6d 31 bc
       0.044509247 -0.013636264 -0.014539815 -0.010829273
000160 05 ad c6 bc e4 06 62 bb 83 f6 dd 3b 73 0e b2 bd
       -0.024252424 -0.003448897 0.0067737713 -0.08694162
000170 09 19 b3 3d 1b 9e c2 bc b9 1d 33 be 97 f3 10 3c
       0.087450095 -0.023757031 -0.17491807 0.008847139
000180 8b 90 14 bc 5f e3 3d bc df 1a 5b 3d 23 67 6c bc
       -0.009067665 -0.011589854 0.053492423 -0.014428887
000190 32 d1 34 3d af af f7 3c 9e dc 05 be 23 9b 4c 3d
       0.044144817 0.03023514 -0.1307244 0.049952637
0001a0 25 55 a7 3d 05 41 97 bd 80 95 b6 bd d9 83 a2 3c
       0.08170537 -0.07385448 -0.089152336 0.01983826
0001b0 7c 87 34 3c 7e 1d 74 bd 75 0e 44 3d b4 7c 86 3d
       0.01101863 -0.05959844 0.04786535 0.06566754
0001c0 02 3f 98 3c 56 fe 06 3d 26 5e 16 be b2 de b1 3d
       0.018584732 0.032957397 -0.14684352 0.08685054
0001d0 7b 5a 1e 3d 59 6f d4 bc e7 e9 77 3d 8a b8 55 3c
       0.038660508 -0.025932001 0.0605258 0.013044486
0001e0 d3 ca b4 3d 72 7f 2d 3c 64 18 39 3d 44 36 99 bc
       0.08827748 0.010589467 0.045189276 -0.018702634
0001f0 42 be 06 bb 3b ff ca 3c cb bf ac 3b 62 a1 42 bd
       -0.002056018 0.024779906 0.005271887 -0.047517188
000200 18 cc 9c bc 2f c0 2f bb 1b 4e 47 bb 62 1d 8e 3d
       -0.019140288 -0.0026817431 -0.0030411545 0.06939198
000210 85 7d c4 bd 57 1b 7a 3d e8 ba b1 3d 56 ef 18 bd
       -0.095942535 0.06106123 0.08678228 -0.037337624
000220 9f ce 19 3e cc a7 50 3d c9 38 2a 3c 2b 32 99 3d
       0.15020226 0.050941274 0.010389515 0.07480272
000230 6b db 10 be b3 74 3b bd c9 d7 2d 3d 40 f7 cb 3c
       -0.14146201 -0.04576559 0.042442117 0.024898171
000240 51 b7 f7 bd ae f6 bc 3d 3b 54 1b bd f3 9b 49 bd
       -0.12095512 0.09226738 -0.037922125 -0.04922099
000250 65 25 b3 bd 4b 43 80 bd 94 56 01 bd bf 2e 3a bd
       -0.08747367 -0.06262835 -0.031576708 -0.045454737
000260 a1 be 9d 3d 06 46 a7 3d f8 2b a9 3a c6 70 dc ba
       0.07702375 0.08167653 0.001290678 -0.0016818277
000270 53 7f 25 3d 48 7f 30 3d c1 83 51 bd 9a 3e 18 bd
       0.04040463 0.043090135 -0.05115104 -0.037169077
000280 77 f0 be 3d fa 10 9f bc f5 04 81 3c 07 49 d6 bc
       0.09323209 -0.019417275 0.015749434 -0.026157869
000290 b6 e9 cb 3b b5 97 2b 3e ef 71 b8 3d a5 a9 92 3c
       0.006222929 0.1675709 0.09006106 0.017903158
0002a0 d4 22 dc bc 72 c0 e7 bc cc 46 08 3e b4 09 79 3d
       -0.026872076 -0.028290007 0.13308257 0.06080027
0002b0 0d 82 8b 3d 80 ba 03 be 58 ac 95 bd e6 1d 8b bd
       0.068119146 -0.12864113 -0.073082626 -0.06792812
0002c0 8f 28 b5 3d 99 6b 6c 3d c2 f9 8c 3d 86 4f 94 3c
       0.088456266 0.0577198 0.06883575 0.018104326
0002d0 e8 12 b4 bd ca 16 16 be eb 6a e7 b9 bc 18 0f 3e
       -0.087926686 -0.14657131 -0.00044139414 0.13974279
0002e0 ac 07 9e bc b4 f4 63 bd f6 a9 b5 bd 91 66 56 bd
       -0.019290768 -0.05565329 -0.08870308 -0.05234391
0002f0 c5 61 cb bb 05 3c 30 3d 2c a3 49 3d 35 76 f2 3d
       -0.0062067234 0.04302599 0.04922788 0.118389525
000300 13 91 ec bc 44 17 6b 3d dd 26 c9 bc b7 bf d0 bc
       -0.02887777 0.057395235 -0.024554664 -0.025482042
000310 77 ac 0e bd d6 0d 57 3d 56 44 58 bc a3 fc ac bc
       -0.034832444 0.05250343 -0.013199886 -0.02111656
000320 a2 74 a2 bd ab 8c 1b 3d c2 b6 f5 bc d6 03 c6 3d
       -0.07932402 0.03797595 -0.029994372 0.096687004
000330 4d a4 88 bc 92 8a 0f bc 36 b7 ab 3d e2 2d 83 3d
       -0.016679907 -0.008761065 0.08384554 0.06405236
000340 33 cd 56 bd 6a c6 06 3d a7 6a ad bb 84 8c 76 bc
       -0.052441787 0.032904066 -0.005292255 -0.01504815
000350 60 9e b5 bd 86 8f 0e 3d f5 5e 99 bd 94 e2 8d bb
       -0.08868098 0.034804843 -0.07488815 -0.0043299887
000360 f4 3d 9d bb 4d f4 1f bd c7 89 e1 3c d2 37 07 ba
       -0.004798645 -0.039051343 0.027531518 -0.0005158159
000370 e1 ee af 3d fb de 21 3d c5 59 96 3d 28 24 05 3d
       0.085904844 0.03951929 0.07341341 0.032505184
000380 b2 e1 b3 3c 03 05 8d bd da e2 8e bd ef a3 eb 3a
       0.021958206 -0.068857215 -0.06976862 0.0017977933
000390 d1 4e 89 3c 90 f9 2f 3e 81 36 bf bc ba 0d 54 bd
       0.016761215 0.17185044 -0.02334142 -0.051770903
0003a0 6f a3 4c bd e1 2e 02 be dc f2 49 bd 78 f1 db 3d
       -0.04996055 -0.12713195 -0.049303874 0.10739416
0003b0 8a 51 60 3d 3b bf 14 3b 62 45 da 3c c7 9f 22 bd
       0.05476526 0.002269699 0.026644412 -0.039703157
0003c0 55 a8 a1 bd a5 1a 61 bd 80 55 a4 3d cb 39 15 3d
       -0.07893435 -0.05495705 0.0802412 0.03643207
0003d0 79 57 ac 3c 12 53 4e 3d 21 2e e2 bc ac f1 47 bd
       0.021037804 0.05037219 -0.027609887 -0.04881446
0003e0 72 80 0e be b5 01 ea 3d ba 6b 57 bd fa d6 42 bd
       -0.13916185 0.11426107 -0.05259297 -0.0475683
0003f0 be 13 d9 3c 7f 22 23 3d 3d 69 fe bd 0e 43 ae bd
       0.026498672 0.03982782 -0.12422416 -0.085088834
