backend/model_store/transaction_attention_model.pth (torch, 203878 bytes, 22 tensors)

fc1.weight f4 [256, 19]
00000000: 08e8 d83d 4d85 90bc 7952 4a3e 7d53 8c3c
00000010: 9c66 0bbe 35d5 9ebd 76b3 8d3e c9e5 2dbe
00000020: 69c5 6cbd a2cc 68be 24d4 033d 6b29 cb3a
00000030: 042f 86bd 299d 453e 8bd3 0c3e 2f16 14be
00000040: f374 053d 8d99 0fbd f810 07be 8547 95bd
00000050: 0fcb 233e a6a3 3abe 008c 59be 0bb0 33bb
00000060: f15a eebd c9e9 243e 8fb9 43be 8b76 873e
00000070: fe4c ca3d 388c 8dbd 5f3a 443e d0ec 98be
00000080: 9324 683e 0daa 203d 20e4 b13d 02c2 113e
00000090: 4245 a2bd edb3 6a3e a7ad 2ebd 5a20 973d
000000a0: 0dfe 673e 9459 45bd f00b 1d3d e086 ddbd
000000b0: af3f fc3d 15ba 17be 59b5 99bd f894 0b3d
000000c0: 3571 3ebe dd02 cebb f9cd 6dbe 56cb 353d
000000d0: 2aff 313d b2df 523d 9181 59bd c040 f53d
000000e0: 610f 61bd 285b 27be 11c0 3abe 3d1f c4bd
000000f0: ae7e 05be d313 2f3e 974e d33b d48e 44be
00000100: d549 c73c b28a 39bd f35d b5bd 3a36 3bbe
00000110: f885 ebbd 7739 95be 64c2 8c3e 375f b23d
00000120: e280 f23c f2e0 1ebe f92a 13be aba8 f1bd
00000130: 108c 6d38 c1c9 693e 47df 1bbe 45e4 153e
00000140: a506 6ebd e838 5a3d 9e58 9a3d 27e2 773e
00000150: a540 ca3d af77 ad3d 3b99 20be f7cb 4cbd
00000160: 14d2 773e 8142 e5bb 7bbd 76bc 92af 863e
00000170: 7a3f 8bbd 2219 473e 18a4 d5bd 35f1 15bc
00000180: c347 17be b4f4 d43d 21cf 123e d339 e6bc
00000190: 8640 1abe 76d3 acbd 3a08 debd 130d 113e
000001a0: 9d21 2b3e a4f1 7f3c 6ed1 6b3e 69a1 a9be
000001b0: 64b3 ef3d 3022 293e 7e92 503e 02b1 1e3e
000001c0: 2a71 1ebe a8c0 8abd 42f9 f13d 04ae 35be
000001d0: 0608 c93c ec08 5f3e a81c 49be e453 423e
000001e0: f851 203e 2418 d9bd 0587 693e 06c4 34be
000001f0: f049 86be 7570 00be 8973 d6ba eb22 bb3d
00000200: b891 9a3e bf2b ab3d f5a5 503e b333 1bbe
00000210: c811 72be bf40 ecb9 4a1f 553d 04ec 133e
00000220: 7ac4 72bd c50f 64be 5cfa 303e 5de3 2ebd
00000230: 4b56 1cbd bc48 703e 9ada bbbd 4291 4ebe
00000240: 7920 e1bc 5aaf f3bd 4500 f1bd a0ee 13be
00000250: b433 3f3e 338d d1bd 77e2 40bc 8ad7 b23d
00000260: 9d7a 95bd 529b 9bbc 1737 a53d 465d e8bb
00000270: bb2f 30be b01c 1abe 8cb2 11bd 644d c6bd
00000280: c815 a23d a52a 5abb 04ad 8bbd 5c67 1b3e
00000290: 4b7e c83a 4ddd 9bbd 9050 7fbc 2c51 bbbd
000002a0: d4de 8cbe a3e0 52be 153c 2e3e 7d0e b53d
000002b0: 52b4 08bc 106f 133e 8dd1 493d 2ea3 613c
000002c0: 5f0a 42bd b360 6abe 9ac1 2abe 1a8d 95ba
000002d0: 6a25 53be ec31 9dbd 60d3 3ebe 1505 5b3e
000002e0: 1331 0ebe 4a15 303d 9f6b 1dbe 7eeb b7bd
000002f0: f9e3 bbbc cb03 153d 8fb0 a23d 5eee c1bc
00000300: c4b7 42bc cd31 7fbb 1174 c43c 2d69 c43d
00000310: a6fe 1f3e 8584 483e a66b 163e f1a9 cdbd
00000320: fe98 5fbe d75d 38bc f800 6dbe d27a 633e
00000330: 4e88 313c a5a2 afbd 13fa 3a3e 9f96 d63d
00000340: 3826 e23d 0d14 8dbe f1ad 44bd 0233 ff3d
00000350: de5d b33d 07ef c23c a386 40be b660 273e
00000360: 9dd0 58be 3bc3 2cbe 2edb 493d a7d2 243e
00000370: ec04 5f3e a31f 7bbd c769 04be 5476 2f3b
00000380: 1483 d03d 6bdf 12bd 1fc5 46bd b1fb f2bd
00000390: f158 60be 586a 0cbe e3a7 943d e54b 143e
000003a0: 78cf 223e e6ec 58bd 218f 0e3c a2df 163e
000003b0: 5ef6 9b3e ea7b 803e ce45 903c c6f6 3b3e
000003c0: 40fe 93be 78e4 693d be28 1f3e 14ae dabc
000003d0: 4916 743e 8c79 02bd 9fbf 58be a96b 38be
000003e0: ffdb 0cbd 19f3 22be 2a01 153e 1616 05be
000003f0: 82c3 4dbe 5cd9 313e 7533 1abd 540f 013e
0.105911314 -0.017641688 0.19758023 0.017129654 -0.13613361 -0.0775551 0.2767598 -0.16982187
-0.057805452 -0.22734311 0.032184735 0.0015500014 -0.06551936 0.19298233 0.13752572 -0.14461587
0.032582235 -0.035058547 -0.13190067 -0.07289032 0.1599543 -0.1822649 -0.21244812 -0.0027418162
-0.116384394 0.16104807 -0.19113754 0.2645763 0.09877966 -0.0691151 0.19162892 -0.29868174
0.22670202 0.039224673 0.086860895 0.14234164 -0.07923366 0.22920199 -0.042646077 0.073792174
0.22655506 -0.04818113 0.038341463 -0.10816741 0.12316834 -0.14817078 -0.075052924 0.034077615
-0.18597873 -0.0062869624 -0.23223104 0.04438337 0.043456234 0.051482864 -0.05310208 0.11975241
-0.054946307 -0.16343367 -0.1823733 -0.09576271 -0.13036606 0.17097406 0.0064485776 -0.1919511
0.024327198 -0.045298286 -0.0885581 -0.18282405 -0.11500162 -0.29145405 0.27492058 0.08709567
0.029602472 -0.15515497 -0.14371862 -0.11799749 5.6635647e-05 0.2283087 -0.15221892 0.14637859
-0.058111805 0.053276926 0.07536434 0.24207364 0.09875611 0.084700935 -0.15683453 -0.049999204
0.24201232 -0.0069964533 -0.015059824 0.26305825 -0.067992166 0.19443181 -0.10431689 -0.0091517465
-0.14773469 0.10398236 0.14336826 -0.028103745 -0.15063676 -0.084387705 -0.10841413 0.14165144
0.16712041 0.015621576 0.2302911 -0.3313096 0.11704138 0.16516948 0.20368382 0.1549721
-0.15472856 -0.067750275 0.1181512 -0.17742163 0.024539959 0.21780747 -0.19639838 0.18977314
0.15656269 -0.106003076 0.22805412 -0.17652902 -0.26228285 -0.12542899 -0.0016361336 0.091375194
0.301893 0.08357953 0.20375808 -0.1515644 -0.23639596 -0.00045061667 0.052031793 0.14445502
-0.059269406 -0.2227164 0.17283005 -0.0426973 -0.038168233 0.23465246 -0.09172554 -0.20172599
-0.027481304 -0.1189868 -0.117676295 -0.14446497 0.18672067 -0.1023201 -0.011772743 0.08732517
-0.07298777 -0.018994961 0.08067148 -0.007091197 -0.17205708 -0.15050006 -0.035570666 -0.0968273
0.07914311 -0.0033289578 -0.068201095 0.15176147 0.0015296427 -0.07610569 -0.015583172 -0.09146342
-0.27513754 -0.20593505 0.17015107 0.08840654 -0.008343773 0.14397836 0.04927211 0.013771815
-0.047373172 -0.2288845 -0.16675416 -0.0011409849 -0.20619741 -0.076755375 -0.1863532 0.21388657
-0.13885908 0.042989053 -0.15373085 -0.089804634 -0.022935854 0.03638057 0.07943832 -0.023673233
-0.011884633 -0.0038939596 0.023981126 0.09590373 0.15624484 0.19581802 0.14689502 -0.100421794
-0.21835706 -0.011252842 -0.23144901 0.22214821 0.01083572 -0.08575944 0.18259458 0.104779474
0.11042446 -0.2755436 -0.048017446 0.12460901 0.08758138 0.023795618 -0.1880136 0.16345486
-0.2117333 -0.1687135 0.04928129 0.16095982 0.21779221 -0.061309468 -0.12930976 0.002677341
0.10181251 -0.0358576 -0.048527833 -0.118644126 -0.21908928 -0.13712442 0.07258584 0.14482076
0.15899456 -0.0529603 0.008701117 0.14733747 0.304614 0.2509454 0.01761141 0.18355855
-0.28904915 0.05710265 0.15542886 -0.026694335 0.23836626 -0.031854197 -0.21166848 -0.18009819
-0.034389492 -0.15913047 0.14551225 -0.12996706 -0.20094112 0.17368072 -0.03764673 0.12603503

fc1.bias f4 [256]
00000000: 2b94 df36 ee81 8d36 a6fc dbb7 4d1b 04b7
00000010: 732c f0b4 e0ef e1b5 ae4d 1736 6893 5e35
00000020: 0c70 46b5 d524 1ab6 05cd 1f37 0e70 6136
00000030: 9ae7 6cb5 3901 a6b6 25ae 0bb6 0cd0 80b6
00000040: 97d9 8a36 3608 53b7 5394 0d36 8817 6cb6
00000050: a7b4 dab3 e51a 87b7 d4f6 4e37 bc4b 6335
00000060: bc9f 35b7 b61d bc36 010e 8536 534e 3137
00000070: 64b3 20b6 341a 1ab5 de9f 6136 2203 a036
00000080: 1330 8db6 c57c 7f35 ec04 5db7 38e9 0937
00000090: e893 20b7 607a d635 f08a 1037 f75f 3cb5
000000a0: fa28 14b6 92ab 47b6 66ff a136 f3cd bfb7
000000b0: 8eb2 d9b5 0d68 0eb5 eacb 59b7 2975 97b7
000000c0: caf1 b6b6 0af2 e8b6 5c9f 0238 9f2a 14b7
000000d0: c462 f036 96bb 8336 b23c 83b5 d8b0 6837
000000e0: 4348 a936 0afe 49b8 1eca c635 0cfe 3c37
000000f0: 3fae 7d37 2984 8935 b3b6 19b5 9435 4eb7
00000100: edc6 beb3 eaee 3f35 a800 bd34 b2a1 b736
00000110: b8e4 02b7 f299 54b6 f391 fb34 18c5 b637
00000120: 6a30 85b5 c6e0 9934 5417 39b7 2105 0ab7
00000130: f623 cf35 6ad6 5b35 99a6 27b6 0661 a2b5
00000140: e6c8 a5b6 c301 7838 1a9f 3536 e47f 0cb7
00000150: f210 d0b2 c5a8 cc36 ee63 8e36 1a52 01b6
00000160: cb90 4ab6 08e1 9b35 89d9 87b6 504b 0138
00000170: f4ab aeb5 35d8 a0b6 ecf9 0b38 d71c d836
00000180: d57d 8036 db0d 6c36 8c64 8cb7 28b5 7fb5
00000190: 8e80 c8b6 220f d736 4977 1836 a7bf 80b5
000001a0: 4e88 76b6 3126 85b6 47c6 ca37 2571 6cb5
000001b0: cc63 7636 35fc 0d35 2836 5eb5 5276 02b7
000001c0: 94f2 d0b5 86b8 bc35 c2a2 27b8 3054 c0b4
000001d0: 8566 1c37 22d1 0f36 628c f136 0fdf af35
000001e0: 8b39 c8b7 6b2c 0eb6 5992 adb7 eb52 6ab6
000001f0: fc01 f0b5 53d1 3837 dd25 51b5 adda 8436
00000200: 5f94 c2b4 28eb 6c36 4021 bab1 b2ce 4235
00000210: 9d1f aab6 94ce a134 d491 53b7 31b1 83b5
00000220: 987a 1137 9e48 9334 f5eb afb5 d699 bdb4
00000230: 00ee f0b2 034b f1b5 ff56 1236 3d5e 0536
00000240: 1155 9435 b8f3 a3b5 b278 fb36 81fc 6e36
00000250: 8053 19b7 9f9c a1b7 1297 01b6 28ef 6eb7
00000260: ce0a 3035 4f5f 5eb5 55f4 e9b6 da51 2736
00000270: 4e89 a336 6b2a 9135 0dbc ba36 0f31 62b6
00000280: b9bb e3b7 35bc e9b6 0862 8db5 1a9d a6b5
00000290: c68e a436 ec88 e136 d9e8 7635 4415 acb5
000002a0: 0d88 dfb7 f2be c236 052c 8e35 d812 a536
000002b0: 883f 1337 c463 89b6 6e08 0e37 7174 df36
000002c0: 9007 2237 9185 8c36 1e03 76b6 4d80 25b6
000002d0: c40a b636 b5ec a536 2eb2 9bb5 87b5 0738
000002e0: 88ad 83b5 a8f3 8435 1df0 5f37 02ec 4537
000002f0: 305a 98b6 ce1b d8b6 3d1a f335 085b c935
00000300: 00cc ca36 ad01 11b5 a31c dd35 bdf8 bab6
00000310: bae6 b336 f29e 57b4 493d 7236 20d2 93b7
00000320: e862 9036 4ad2 c736 ac0b c936 2c2c 3ab7
00000330: 0145 3cb8 d643 cf36 9c95 06b7 6239 00b7
00000340: a10b 6f36 ca42 b534 819c f1b6 a650 28b4
00000350: 3756 dcb6 b4ef fb35 7c00 59b5 f273 6a35
00000360: bf5c 4f36 75fe 4bb8 7f22 c536 2af4 8db3
00000370: 1686 23b7 5147 7436 9a4b 00b4 8a76 3c35
00000380: a74e e8b5 b1ec c936 7008 e4b5 43e1 8c37
00000390: 7466 de32 2e60 e7b6 ba13 d2b7 2ef6 95b6
000003a0: 9464 8f35 3f51 6736 014e a8b6 f3b8 2ab6
000003b0: b67f 9737 bd1e 2a37 7d40 0ab6 1e82 a437
000003c0: 4549 43b6 baca a2b6 bbf6 4a35 ab05 cdb6
000003d0: ec6d 2236 7f1d c136 0398 5137 2219 3336
000003e0: b824 b6b6 9247 afb6 d25b e236 dc8c 1736
000003f0: 2839 edb5 f0ee 4b37 7c90 feb6 9c21 11b7
6.663167e-06 4.2172533e-06 -2.6224483e-05 -7.87417e-06 -4.4735825e-07 -1.6833619e-06 2.254597e-06 8.291595e-07
-7.39238e-07 -2.2969227e-06 9.524873e-06 3.3592837e-06 -8.8253876e-07 -4.947328e-06 -2.081398e-06 -3.838917e-06
4.1380513e-06 -1.2578492e-05 2.1096973e-06 -3.5180437e-06 -1.01842765e-07 -1.6105778e-05 1.2336026e-05 8.46743e-07
-1.0825632e-05 5.6062954e-06 3.965339e-06 1.0568258e-05 -2.3946277e-06 -5.74076e-07 3.3620668e-06 4.7687363e-06
-4.207724e-06 9.5176466e-07 -1.31737725e-05 8.220137e-06 -9.57118e-06 1.5979858e-06 8.615418e-06 -7.0175105e-07
-2.207757e-06 -2.9753178e-06 4.827906e-06 -2.2864877e-05 -1.6219726e-06 -5.3050536e-07 -1.2981685e-05 -1.805516e-05
-5.4521706e-06 -6.942316e-06 3.114283e-05 -8.831411e-06 7.164055e-06 3.925942e-06 -9.777925e-07 1.3869452e-05
5.045005e-06 -4.8158727e-05 1.4810973e-06 1.1264823e-05 1.5120545e-05 1.0245759e-06 -5.7262804e-07 -1.2291031e-05
-8.883749e-08 7.150071e-07 3.520447e-07 5.472649e-06 -7.801857e-06 -3.168007e-06 4.6858585e-07 2.178787e-05
-9.923363e-07 2.8662015e-07 -1.1032291e-05 -8.226635e-06 1.5433168e-06 8.189587e-07 -2.4981912e-06 -1.2098178e-06
-4.940771e-06 5.912945e-05 2.706371e-06 -8.374427e-06 -2.4222093e-08 6.099321e-06 4.243563e-06 -1.9270287e-06
-3.0184626e-06 1.1613893e-06 -4.048638e-06 3.0826137e-05 -1.3014055e-06 -4.7935414e-06 3.337294e-05 6.440659e-06
3.829346e-06 3.5174805e-06 -1.6736121e-05 -9.525852e-07 -5.97543e-06 6.409261e-06 2.2719198e-06 -9.592521e-07
-3.6736196e-06 -3.968155e-06 2.4172607e-05 -8.80815e-07 3.6714946e-06 5.28936e-07 -8.278025e-07 -7.776152e-06
-1.5567807e-06 1.4060795e-06 -3.9967483e-05 -3.582404e-07 9.322194e-06 2.1430392e-06 7.1987024e-06 1.3103435e-06
-2.3868653e-05 -2.1185504e-06 -2.0691356e-05 -3.4916982e-06 -1.7881971e-06 1.1015992e-05 -7.7913666e-07 3.9593638e-06
-3.624327e-07 3.530362e-06 -5.4170926e-09 7.2571413e-07 -5.070075e-06 3.0138892e-07 -1.2610533e-05 -9.81183e-07
8.671217e-06 2.743372e-07 -1.3107189e-06 -3.5315924e-07 -2.8047907e-08 -1.797773e-06 2.1806334e-06 1.9873398e-06
1.1051617e-06 -1.2215378e-06 7.4944337e-06 3.561174e-06 -9.138952e-06 -1.9265628e-05 -1.9310432e-06 -1.4241588e-05
6.558083e-07 -8.2840137e-07 -6.972385e-06 2.4932583e-06 4.873763e-06 1.0815687e-06 5.565124e-06 -3.370518e-06
-2.7147924e-05 -6.9658513e-06 -1.053385e-06 -1.2413686e-06 4.904202e-06 6.7214623e-06 9.198098e-07 -1.2821188e-06
-2.6647025e-05 5.8038795e-06 1.0592636e-06 4.919577e-06 8.776675e-06 -4.0945324e-06 8.465822e-06 6.6594735e-06
9.657713e-06 4.1878743e-06 -3.665867e-06 -2.4661597e-06 5.425276e-06 4.9449395e-06 -1.1600257e-06 3.235557e-05
-9.810765e-07 9.90568e-07 1.33477415e-05 1.1797065e-05 -4.540452e-06 -6.4405385e-06 1.8112547e-06 1.5002161e-06
6.043818e-06 -5.401915e-07 1.6474118e-06 -5.572189e-06 5.361476e-06 -2.008126e-07 3.6096483e-06 -1.7621613e-05
4.3030486e-06 5.955143e-06 5.9916256e-06 -1.10967485e-05 -4.4886958e-05 6.176978e-06 -8.021856e-06 -7.642755e-06
3.5620544e-06 3.3762473e-07 -7.200579e-06 -1.5675559e-07 -6.5665477e-06 1.877072e-06 -8.0839504e-07 8.7340516e-07
3.089939e-06 -4.8635953e-05 5.8750734e-06 -6.610237e-08 -9.746776e-06 3.6400345e-06 -1.1948433e-07 7.0207955e-07
-1.7308238e-06 6.0178213e-06 -1.6989779e-06 1.6794196e-05 2.5890792e-08 -6.8955333e-06 -2.5043137e-05 -4.469205e-06
1.0683602e-06 3.4468974e-06 -5.015871e-06 -2.5439629e-06 1.8060073e-05 1.0139946e-05 -2.060114e-06 1.9610914e-05
-2.9099913e-06 -4.8515767e-06 7.5609904e-07 -6.110136e-06 2.4203864e-06 5.755282e-06 1.2492764e-05 2.6687708e-06
-5.4282973e-06 -5.2237383e-06 6.746014e-06 2.2582744e-06 -1.7674511e-06 1.2155375e-05 -7.58661e-06 -8.650499e-06

bn1.weight f4 [256]
00000000: 10f0 733f 62d9 843f 660a 853f 36fa 773f
00000010: 678b 803f 26f5 7f3f 5a07 7b3f c127 653f
00000020: 531e 783f bcf8 7b3f 1df8 813f e606 783f
00000030: fe76 733f b451 733f 3f2d 723f 717a 6f3f
00000040: 1c2e 823f ddd5 7d3f a57b 783f 98bf 713f
00000050: 7736 6d3f 72ea 873f 624b 773f 2ed3 843f
00000060: 7397 833f 6b4b 7a3f bf6b 6b3f 2236 823f
00000070: 35d1 7b3f f41f 7b3f bcba 743f 44e4 683f
00000080: d1a4 6a3f 051d 733f 8e25 7e3f dc65 7b3f
00000090: 3929 833f cff9 743f 404a 783f db7e 743f
000000a0: aced 6e3f 9cda 803f 522e 6f3f c3cb 833f
000000b0: 39b2 733f b301 6f3f ff28 783f 0e8a 853f
000000c0: ce81 743f 2fc2 603f cecb 883f 1eac 853f
000000d0: 7d80 703f 801c 833f 1a05 753f 9fce 833f
000000e0: 4de6 7a3f 6ce8 833f bb0f 743f 03dc 6c3f
000000f0: 457e 6e3f 33a3 783f c84f 673f 6b59 773f
00000100: 5ea6 713f 9646 6c3f f0e7 6f3f 0a37 823f
00000110: 3a0e 743f 39a9 823f bf30 863f e8c5 793f
00000120: f4f2 6a3f 7029 723f 5452 813f 119f 843f
00000130: 7ce4 693f fbbb 753f a2a1 723f 326f 743f
00000140: d2c3 773f e055 8b3f eaf4 643f 7f40 7d3f
00000150: 7c6c 5f3f 58bc 793f 4121 6b3f fadc 6a3f
00000160: 9b2e 713f ee77 723f 4cf1 733f 179a 873f
00000170: 25fd 663f c3a7 7f3f fd99 853f b820 7c3f
00000180: 8ae3 713f 58cc 703f 6ef4 843f 7cc3 7d3f
00000190: 9253 7f3f 6c3e 863f 1ef4 7c3f e517 723f
000001a0: 879b 793f a45f 793f ec2b 8b3f 6bbd 6a3f
000001b0: 3046 793f abbb 763f 7082 703f ae62 773f
000001c0: d18c 703f fade 723f 041a 813f ee82 6f3f
000001d0: f36b 743f 0ece 773f 1f27 6a3f a398 7a3f
000001e0: 9bd8 863f aa4c 6f3f 1087 823f b514 7a3f
000001f0: 669c 733f aa0d 793f 44a8 683f df2f 743f
00000200: a196 6d3f a346 6f3f 26e9 6f3f 561e 7e3f
00000210: b0ec 743f f1f9 713f b844 873f 6287 7c3f
00000220: 20d0 6d3f 7e4e 823f 0724 763f 9d1a 7d3f
00000230: 3729 713f defa 6c3f 89f2 803f 9641 733f
00000240: 492a 753f 5fb4 703f 8b5a 733f 9903 823f
00000250: 9140 7b3f 0c60 863f 99da 7c3f b01a 853f
00000260: 74f7 753f eba7 813f 93b8 7f3f 113c 7f3f
00000270: ba88 783f 42e5 743f d4cc 893f 5400 783f
00000280: a10c 873f 6085 833f 530e 733f 720c 813f
00000290: 1bd1 7f3f 476c 7c3f edc2 7d3f 1dc8 763f
000002a0: 0ce1 6e3f 2f7b 663f f8d0 7d3f ddd4 713f
000002b0: 6d72 6f3f 925d 7a3f c20c 7a3f 4db5 823f
000002c0: 3f43 813f 801b 853f b07a 773f cf02 823f
000002d0: d0ae 763f d651 7c3f d8bf 703f a60a 863f
000002e0: 2325 7b3f 9dbd 753f 9478 773f cab2 7b3f
000002f0: cc81 773f 5add 823f 127a 803f 7bf7 753f
00000300: cd39 733f dbe6 733f af88 823f f7d6 863f
00000310: f7cd 7e3f 5b97 733f 589f 683f 999d 733f
00000320: ee59 803f 604d 763f 44fe 6f3f 0104 7d3f
00000330: 41ff 7e3f b827 693f 7421 7e3f 0c80 823f
00000340: 7de9 863f 48b0 683f ec62 6c3f 9326 6c3f
00000350: 9e5c 743f d53d 803f 1ad0 713f 9709 7f3f
00000360: 282e 7c3f c474 833f c979 803f a469 633f
00000370: e792 773f c4f9 6c3f be60 653f 275d 783f
00000380: ea90 833f 4044 813f c627 723f 5ae8 803f
00000390: dc63 673f 8ab2 803f 7985 783f c09e 6b3f
000003a0: a3eb 683f 6102 7c3f ea02 6f3f 9036 843f
000003b0: ff7d 8e3f 6768 853f a4fb 6c3f 8ca2 883f
000003c0: 0be1 7e3f 6fb9 7a3f 1258 673f 625b 883f
000003d0: 6356 6d3f ff98 7c3f a6fe 823f cd74 813f
000003e0: 4995 793f 4318 7f3f f663 6d3f 9512 823f
000003f0: 41af 803f 4538 843f 65eb 743f d08f 773f
0.9528818 1.037884 1.0393798 0.96866167 1.0042542 0.9998344 0.9805809 0.89513785
0.9692127 0.98426414 1.0153843 0.96885526 0.9510344 0.95046544 0.9460029 0.93546206
1.0170321 0.99154454 0.97063667 0.94432974 0.9266123 1.0618422 0.965994 1.0376947
1.0280594 0.9777133 0.9196128 1.017277 0.983661 0.9809563 0.95597434 0.90973306
0.9165774 0.94966155 0.99276054 0.982023 1.0246955 0.9569368 0.96988297 0.95506066
0.9333141 1.0066714 0.93430054 1.0296558 0.9519382 0.9336197 0.96937555 1.0432756
0.95510566 0.877963 1.0687196 1.0443151 0.9394606 1.0243073 0.9571091 1.0297431
0.9800766 1.0305305 0.953365 0.9252321 0.9316142 0.9712402 0.9035611 0.96620816
0.9439448 0.92295206 0.93713284 1.0173047 0.9533421 1.0207893 1.0483626 0.97567606
0.9177697 0.9459448 1.010325 1.0361043 0.91364264 0.9598996 0.9477788 0.9548217
0.96783173 1.0885582 0.8943621 0.9892654 0.8727491 0.97553015 0.91847616 0.91743433
0.9421174 0.9471425 0.95290065 1.05939 0.9023002 0.9986536 1.0437618 0.98487425
0.9448782 0.94061804 1.0387094 0.9912641 0.99736893 1.04878 0.98809993 0.9456771
0.9750294 0.9741156 1.0872779 0.9169528 0.9737272 0.9638011 0.9394903 0.9663495
0.9396487 0.94871485 1.0086064 0.9355916 0.9547722 0.9679879 0.91465944 0.97889155
1.0534853 0.93476355 1.0197468 0.97687846 0.9516052 0.97286475 0.9088175 0.95385545
0.92807966 0.9346716 0.9371513 0.9926504 0.95673656 0.94522005 1.0567846 0.9864408
0.928957 1.0180204 0.96148723 0.98868734 0.94203514 0.9257029 1.0074016 0.9502195
0.9576765 0.94025224 0.9506003 1.0157348 0.98145396 1.0498061 0.98771054 1.0398769
0.9608071 1.012937 0.9989101 0.9970103 0.9708363 0.9566232 1.0765634 0.968755
1.0550729 1.0275078 0.9494373 1.0081923 0.99928445 0.9860272 0.9912556 0.963991
0.93312144 0.90031713 0.99146986 0.9446543 0.93533975 0.97799027 0.97675717 1.0211579
1.0098647 1.0399017 0.9667158 1.0157107 0.9636049 0.9856237 0.9404273 1.0472
0.9810354 0.9599245 0.9666836 0.98319685 0.9668243 1.0223801 1.0037253 0.9608075
0.9501007 0.9527413 1.0197963 1.0534352 0.9953303 0.95152825 0.9086814 0.9516235
1.0027444 0.96211815 0.93747354 0.98834234 0.99608237 0.9107623 0.99269795 1.0195327
1.0540005 0.90893984 0.9233844 0.9224636 0.9545382 1.001887 0.9445816 0.9962401
0.9850793 1.0270009 1.0037166 0.8883307 0.9670853 0.9256861 0.8960074 0.9701714
1.0278599 1.0098953 0.9459194 1.0070908 0.9038675 1.0054486 0.97078663 0.9203911
0.90984553 0.9844113 0.9336382 1.0329151 1.1132201 1.0422486 0.92571473 1.0674605
0.9956214 0.979392 0.9036876 1.0652888 0.9270994 0.98670954 1.0233963 1.011377
0.97493416 0.99646395 0.92730653 1.0161921 1.0053483 1.0329672 0.95671684 0.96703815

bn1.bias f4 [256]
00000000: 4a4e 813a dfe1 83bc a805 99ba 6525 8dbc
00000010: 5f8a 7fbc ebd1 c8bc da34 8c3c 929e acbd
00000020: f49b 163d 7a76 22bd 4e17 303d 3cd9 34bc
00000030: d6fd d9ba bfc1 20bd 4602 d3bc 0053 a3bc
00000040: 9d7e 0cbc 2dff 5abc 1ac8 33bd 69a2 0fbd
00000050: 219b a7bd d3ce d3bb a8cf dabb dcc2 4dbb
00000060: 4389 08bb 75a9 84bd 3685 02bd 8e46 96bc
00000070: 09fe 94bc a31e 6ebc 3b20 503c d43a 61bd
00000080: 8e3f 5bbd 8d46 bbbb 0e36 14bd e172 f63a
00000090: 0d4c 18bd 8a50 d2bc 3e46 78bd 8533 87bb
000000a0: 0eeb 1cbd db48 e93c 342b 85bd 6b09 523d
000000b0: 63a0 0cbd 76c5 8bbc 20a2 85bc d8a9 943d
000000c0: 87f4 1fbc a8dd ebbd 9d0f 1bbd e9df ac3c
000000d0: 2f60 60bd 9796 a03c 8a21 65bc e393 c9ba
000000e0: e84a 3c3d c10d 873d 250a 883c ad30 95bc
000000f0: b436 3dbd 57e5 2f3c 2a2b b1bc 7552 07bd
00000100: a8a1 dcbc ef47 a5bd 700f ccbc d596 6c3d
00000110: c92b d33c b8f2 2f3c f772 243b 5a1a a33b
00000120: ad00 f8bc 08a7 24bd 1762 28bc 7b66 8f3d
00000130: 1fd0 8bbd fa13 6ebd ab70 aabc 4f03 7ebd
00000140: 1588 5ebc f11a 48b9 984a b2bd 4925 a9bb
00000150: 6987 f2bd 977d 2a3c 3f00 24bd 41fd 96bd
00000160: a3ef 5ebd 68d9 72bc 3639 78bd 02b7 d2bb
00000170: be4d b0bd 00a7 de3c c809 da3d 44e7 4abd
00000180: c91c 12bd 663d 5cbc 1818 ffbb b52d 3ebd
00000190: 370c 08bd 13fc 823d 9caf f7bc 6807 a3bc
000001a0: d2a1 7ebc cf20 4abd 8f2e b23d f38f e9bc
000001b0: 579e fcbc b1b7 63bc 2668 423c 1b8e ccbb
000001c0: 05ff 37bd e41b ddbc 047c 3f3d 64f8 edbc
000001d0: d8c1 f6bc b64d 35bd 153a b1bd 0f8e 27bd
000001e0: 1ccf 52bc a94c cbbc f10c 663d 7fe1 efbc
000001f0: 9a26 18bd d027 aebb b32f 21bd 837f d33c
00000200: 249c 21bb 4574 edbc cb89 c9bc fd94 ddbc
00000210: aee1 0cbd 95e8 24bd 2b92 3f3d 7009 40bc
00000220: a808 70bd 72e2 d63b 5bfc 20bc 60b9 4ebc
00000230: dde3 55bd 7376 57bd a4b5 863c f839 44bd
00000240: 1d88 c0bc d614 b2bd e2a7 c83c 2585 ec3c
00000250: 7ceb 1dbd 5bb4 893b 2d93 d6bc c84d 61ba
00000260: 39ce acbb c91f 623d 8352 c8bc d135 2ebd
00000270: 1c9c 25bd d434 8abd 811b 8d3c 1cc1 90bd
00000280: 08e3 283c 95af 4d3d 903b 00be 3c30 f6bc
00000290: d847 3dbd 8211 eb3b ae8c 5bbc 9054 caba
000002a0: 2c68 5ebc 6378 41bd 472e e03c b7fd 0bbd
000002b0: baf6 56bd 9a4f dbbc c599 3dbd df86 0a3c
000002c0: 2ca0 7c3c 6142 b8bc 2ab0 c03c 79fd 433c
000002d0: f27e a0bd c68d 8ebd ed7d 65bd 9cc4 763d
000002e0: 0ebf 483c 3f5e 10bd d72b 3dbd 8ab3 053d
000002f0: 87ed 3d3d be8b 903c 1609 6e3d ec17 e7bc
00000300: ec4a 9bbc aab5 4ebd e518 323c 3563 9c3c
00000310: 458f 133d b186 2cbd 343c 99bd 1c34 d6bb
00000320: 7cad 4bbc 2143 593b 62f5 d5bc 3af7 58bd
00000330: 486b c9bc b73e 9bbd c50e ab3c 60e8 bf3c
00000340: 2e38 023d b2e1 d0bc 9bf1 f3bc 226e fdbc
00000350: 902c 83bb 842d b03c 100e 48bd 242c 2b3d
00000360: 4dbf f83c 4eb8 2cbc 3748 263d ad25 0bbd
00000370: 28d7 a1bc 3c0b 8bbd 4566 93bd 9aac 85bd
00000380: 96d0 c0bc 3e1f 40bc 2b6d d3ba 7162 babc
00000390: 772b a2bd 28d0 73ba d907 01bd e355 ccbc
000003a0: dde8 18bd 7bbe c6bb dbab 15bd ea2a 743d
000003b0: 7311 103d 548e 403d 8f1b 61bd aa85 c13b
000003c0: bb7c cfbd 7fb9 18bd f1ae 5cbd 53e2 7e3d
000003d0: 44bb a5bd 5d33 44bd 7653 2d3d 5356 36bd
000003e0: e719 17bd 6432 793c 7b8d bfbc af45 6e3d
000003f0: ca96 323c ce1c 62bb e0cf 6c3c 3df3 8abd
0.0009865251 -0.016098915 -0.0011674659 -0.017229745 -0.015596955 -0.02451416 0.017115045 -0.084286824
0.036769822 -0.03966377 0.042990975 -0.011038121 -0.0016631435 -0.03924727 -0.02575792 -0.019937038
-0.008575109 -0.013366503 -0.043892004 -0.035066996 -0.08183885 -0.0064638644 -0.0066775866 -0.0031396663
-0.0020833767 -0.06477634 -0.03186532 -0.01834419 -0.01818754 -0.014533672 0.012702997 -0.054987743
-0.053527407 -0.0057151974 -0.036184363 0.0018802547 -0.037181903 -0.02567317 -0.060613863 -0.0041260147
-0.038310103 0.028477123 -0.06502381 0.051278513 -0.034332644 -0.01706193 -0.016312659 0.072589576
-0.00976289 -0.11516887 -0.037856687 0.021102862 -0.054779228 0.019603057 -0.013985047 -0.0015379157
0.045969874 0.0659442 0.0166064 -0.018211687 -0.046194747 0.010735831 -0.021627028 -0.03303762
-0.026932552 -0.08070361 -0.024909705 0.057761032 0.025777714 0.010739021 0.0025092938 0.0049775066
-0.03027376 -0.040198356 -0.010277293 0.070019685 -0.06826805 -0.05812452 -0.020805677 -0.062014874
-0.013582249 -0.00019083523 -0.08705634 -0.0051619154 -0.11842234 0.0104059195 -0.040039297 -0.07372523
-0.054427754 -0.0148223415 -0.060601436 -0.0064305076 -0.08608578 0.027179241 0.10646397 -0.04953696
-0.035671983 -0.013442373 -0.0077848546 -0.04643031 -0.033214774 0.063957356 -0.030235104 -0.019900993
-0.015541511 -0.049347695 0.087002866 -0.028511023 -0.030837221 -0.013898776 0.011865651 -0.006242526
-0.04492094 -0.026990838 0.04674913 -0.029049106 -0.030121729 -0.044263564 -0.086536564 -0.040906962
-0.012866762 -0.024816828 0.056164686 -0.02928233 -0.03714619 -0.0053148046 -0.03935213 0.025817638
-0.0024659717 -0.028986106 -0.024601838 -0.027048582 -0.034394912 -0.04026087 0.046770256 -0.011721
-0.058602005 0.006557756 -0.009825791 -0.012617439 -0.05221926 -0.052603196 0.016444035 -0.047906846
-0.023502404 -0.086953804 0.024494115 0.028872082 -0.038554654 0.0042024083 -0.026193226 -0.0008594659
-0.005273607 0.055206094 -0.024453407 -0.042531792 -0.04043208 -0.067483574 0.017225029 -0.07068083
0.010308035 0.050216276 -0.12522721 -0.030052297 -0.046211094 0.007173718 -0.01340024 -0.0015436579
-0.013574641 -0.04723395 0.027365817 -0.03417751 -0.05248139 -0.026771355 -0.046289224 0.008455007
0.015419047 -0.02249259 0.023521502 0.011962288 -0.07836713 -0.06960635 -0.056028295 0.060246095
0.012252582 -0.03524613 -0.046184387 0.032641925 0.0463691 0.01764476 0.058114134 -0.028209649
-0.018956624 -0.050466217 0.010870193 0.019090274 0.036025304 -0.04212064 -0.07482186 -0.0065369736
-0.012431499 0.0033151584 -0.026117984 -0.05297015 -0.024587288 -0.07580321 0.020881066 0.023426235
0.03179186 -0.025498245 -0.029778292 -0.030936304 -0.004003115 0.021506079 -0.048841536 0.041790143
0.030364657 -0.010541989 0.040596213 -0.033971477 -0.019755915 -0.06789252 -0.07197241 -0.06527062
-0.023536962 -0.011726199 -0.0016130557 -0.022752019 -0.079184465 -0.0009300732 -0.031501625 -0.024943298
-0.03733145 -0.0060651875 -0.036540847 0.05961124 0.03517289 0.047010735 -0.054957923 0.0059058266
-0.10131212 -0.037286278 -0.053877775 0.06222756 -0.08092359 -0.047900546 0.042315923 -0.04451592
-0.036889937 0.015209768 -0.023382893 0.058171924 0.010900209 -0.0034502032 0.014453858 -0.06784675

bn1.running_mean f4 [256]
00000000: 50ec 72bd 5054 fb3d a0a4 cdbc 621d 19be
00000010: efbf 023e 00c1 4f3d 3fcc 053c fefb 5b3b
00000020: 3ffb fbbd 70b1 09be 9a6f e43d fda9 15bd
00000030: 8984 a83d b89d 2e3e ee59 4b3b 73ea 153d
00000040: d0ff 7abd 5d7e 30bd a0c4 203c ce7c 2b3d
00000050: 1172 243d 966a dbbc a306 083e b537 843b
00000060: b5ac 0c3d 7d39 3cbd 5f2c 863d 3c8d ebbd
00000070: 6910 473d c3d1 133d 0bcf 49be c3c8 9c3d
00000080: 2271 64bd 017e d53c 5db3 62be 33f3 67bd
00000090: 00d2 f8bc 5d74 b93c a499 ae3c f834 003d
000000a0: 6767 433d 364c 9d3d f001 1b3d 303d a03c
000000b0: a9c9 b9bd ea5a 1d3d 5241 3cbe a96d e5bc
000000c0: 2951 dd3d 9602 c3bd b164 20be d101 543b
000000d0: cdfd d0bd c8c1 4cbd c950 2f3d 208b 2ebc
000000e0: 779b 483e f1a2 7c3d 36b4 a13d 94ca 13be
000000f0: f3cf f7bd 7766 cebb db6d 40bd b265 eebd
00000100: a90d f23c 2075 bcbc 2fd8 90bc 5513 24bd
00000110: 10a9 24bd 6ad3 13bd d36a f73c 23a8 1fbd
00000120: 529a 38be 1d89 6d3d 9e0d a5bd a960 8abd
00000130: 466d 4f3b dcf5 5a3e a2aa c4bc 2061 c6bc
00000140: e792 da3d ccba 903c d628 fdbd 613d d43d
00000150: 0d81 89bd e205 39bd 8cb3 133c d44d f93d
00000160: e23a 13bd 1826 b4bd a3b2 72bd b782 1ebe
00000170: c7f7 a5bd 5e29 b1bc 61f3 c73d c6a2 b1bd
00000180: a89a f23d 83b9 873c 8a56 613d ffab cebc
00000190: 3d21 323d 9010 133e 1cc9 a83b eee8 3cbd
000001a0: ee96 253d 3f2c a33d 9d2d 103e a71c cabc
000001b0: 328c bc3b 27aa d83d f32e b43c 30ba 7dbc
000001c0: 141c 90bd b455 d2bc 296e f03d d1f8 6c3d
000001d0: 822c f5bd 5bb0 333e 85c0 153d c671 f0bd
000001e0: e8c2 283d 695b e63d 1b1c d6bc 7235 ae3d
000001f0: d300 9e3d 1cd8 3ebd 2661 b03d 345c dfbd
00000200: 8f53 a6bd a277 29bd f2fe 493e 841c a13c
00000210: 040a 123d 76b0 16bd b6ca 6fbd fe54 c93a
00000220: 347d 403d c5da 9dbb 63bd 84bd 3b70 083d
00000230: 482f 9d3d e0cf a2bd eca1 5d3c 0c0c 1f3a
00000240: b48d 00be 8ce7 e33c 91f8 63bd 8ca6 a23a
00000250: 5edf 893c a6fc 6bbd 03c9 a8bd 89a3 56bd
00000260: a881 863d 9aad 743b 9b02 21be 62f1 1c3d
00000270: 1321 dabd dc97 babd 7533 0e3d 2cea e13d
00000280: 3e26 f63b cfc6 82bd de84 3b3d ff3a 073c
00000290: 1d28 1f3b 3c55 a4bd 6c35 83bd 22ce 12be
000002a0: b0ea 6dbc 2a50 413d 118f 0c3e 22cb b3bd
000002b0: afa0 583d ece4 62bc 87ae 3d3d 9ab0 af3d
000002c0: 8952 ccbd ef8a 43bd 8370 32bc 1110 5cbd
000002d0: 8033 433d 815c 8c3d 32d9 d9bc 23a7 01bd
000002e0: 36cb b0bd 004c 08be 62a1 2bbe 4237 c0bc
000002f0: 32d6 8f3d 8612 bebb f1ad f53c cc86 1f3b
00000300: 58c0 8abc 8f76 aabd bac4 af3d 0d68 c03d
00000310: d8e2 9a3c f0e1 d2bd 0a0f 9fbc 2a7d febb
00000320: fce7 87bc a87f 3a3d d536 333e 6f37 07bd
00000330: ccdc 10be f0e9 a4bd 8980 903d f4db 1abd
00000340: 59e2 28bd 0ca0 eaba dd8f 0a3d dce7 103c
00000350: 7b23 60bd fc82 8c3d 2aad e8bc 20f2 953b
00000360: 6050 2c3d 8775 883d cf1d f03c 8dab 393d
00000370: 8673 2f3d bf04 a0bd e4c3 713b 51f8 9bbd
00000380: 586b 72bd f3bb a3bd 892d a0bd 42bb 7d3d
00000390: 89ef 2ebe d485 6ebd e98e 16be 70cd e83b
000003a0: 4085 e1bd 8f60 023e dcf4 ddbd 0bf9 0d3d
000003b0: bb8e 10bd 636c a33c bd13 1abd 0d23 163d
000003c0: d368 3abe 7f6b 4f3e f704 2bbd 601b 99bb
000003d0: 7fec 4b3d 685b cd39 6168 c73d 3e9d 513d
000003e0: bc95 493d ee4a c8bd 329d 3cbe eaf9 f7bc
000003f0: 6a00 3abd 46bb 153d e0b3 6e3d 2672 0bbe
-0.059307396 0.12271941 -0.025102913 -0.14952615 0.1276853 0.05072117 0.008166372 0.0033566947
-0.12303781 -0.13446593 0.11154099 -0.036539067 0.08228404 0.17052352 0.0031028944 0.03660054
-0.061279118 -0.04308926 0.009812504 0.04186707 0.040147845 -0.026784223 0.13283782 0.004034961
0.034344394 -0.045953263 0.06551432 -0.11501548 0.048599634 0.036088716 -0.19707887 0.0765548
-0.055771954 0.02606106 -0.22138734 -0.056628417 -0.030373573 0.022638494 0.021313496 0.031300515
0.047706034 0.07680552 0.037843645 0.019560426 -0.09071667 0.03841678 -0.18384293 -0.028006392
0.10806496 -0.095219776 -0.1566341 0.0032349715 -0.10204659 -0.04998949 0.042801652 -0.010653287
0.19590555 0.06167883 0.07895701 -0.14432746 -0.1210021 -0.006298836 -0.046979766 -0.116404906
0.02954753 -0.023005068 -0.01768121 -0.0400575 -0.040200293 -0.036090292 0.030202305 -0.038978707
-0.18027619 0.05799209 -0.08059238 -0.06756718 0.0031650825 0.2138285 -0.024007145 -0.024216235
0.10672551 0.017667197 -0.123613045 0.103632696 -0.067140676 -0.045171626 0.009014975 0.12173048
-0.035944827 -0.08796328 -0.059252393 -0.15479551 -0.081039004 -0.02162617 0.09763218 -0.08673625
0.118459046 0.016567951 0.05501417 -0.025228499 0.04348873 0.14361787 0.005150927 -0.046120577
0.04042714 0.07967424 0.140799 -0.024671866 0.0057540173 0.10579329 0.021995043 -0.015486285
-0.070366055 -0.025675632 0.117397614 0.057854477 -0.1197138 0.17547743 0.036560554 -0.117404506
0.041201502 0.11247904 -0.026136449 0.08506288 0.07715001 -0.046592817 0.086122796 -0.10906258
-0.08121406 -0.041373856 0.1972616 0.019666918 0.035654083 -0.03678938 -0.05854293 0.0015360413
0.046994403 -0.004817339 -0.06481435 0.033310156 0.07675034 -0.07949805 0.013527375 0.0006067164
-0.12554055 0.027820371 -0.055656973 0.0012409254 0.016830143 -0.05761399 -0.08241465 -0.052402053
0.06567699 0.003733492 -0.1572365 0.038316138 -0.1065084 -0.09110996 0.034717042 0.11030993
0.007511883 -0.06385576 0.04578101 0.008253812 0.0024285384 -0.0802407 -0.06406674 -0.14336446
-0.014521286 0.04719559 0.1372645 -0.08778979 0.052887615 -0.013848525 0.04630902 0.08578606
-0.0997668 -0.04773992 -0.010891083 -0.05372626 0.047656536 0.06853581 -0.026592825 -0.031653535
-0.086325094 -0.13310242 -0.16760781 -0.023463849 0.070232764 -0.005800548 0.029990168 0.002434182
-0.01693742 -0.083233945 0.085824445 0.09394846 0.018906996 -0.102970004 -0.01941635 -0.0077663856
-0.016590111 0.0455319 0.17501386 -0.03301185 -0.14146727 -0.080524325 0.07055766 -0.03780742
-0.041231487 -0.0017900481 0.033828605 0.008844342 -0.054721337 0.06860921 -0.028402884 0.0045759827
0.04206884 0.066630416 0.029311089 0.04532962 0.04283478 -0.07813405 0.0036890442 -0.07615722
-0.059184402 -0.07994833 -0.07821185 0.06194616 -0.17083563 -0.058233097 -0.14702953 0.007104568
-0.110117435 0.12732147 -0.10837719 0.034661334 -0.03529237 0.019949144 -0.03761648 0.03665452
-0.1820405 0.2025585 -0.04175278 -0.004672453 0.049786087 0.0003916875 0.097367056 0.05117535
0.049215063 -0.09779917 -0.1841934 -0.030270535 -0.04541055 0.03655555 0.05827701 -0.13617763

bn1.running_var f4 [256]
00000000: 869a ca3d 2bd1 3f3e ad81 9a3d 58e5 1c3e
00000010: fdc3 f43d ad0e f83d bd92 293e bcf4 d53d
00000020: 60f5 993d 394c 833d 76be e83c 01b9 053e
00000030: c63c 763e d6c4 cc3d e9d3 e73d 241b 123e
00000040: 96b1 473d 2164 9d3d 75f9 ce3d 120c b73d
00000050: 5b6d 013e f802 e73d a4d2 073e 8aa3 2f3e
00000060: 68b8 933d cb49 9a3d 2858 383e f86e e43c
00000070: e667 013e 26f6 033e 12d8 ce3d 13fc e83d
00000080: 0491 7c3d c52a f73d 6497 ad3d 711f 023e
00000090: 294c 913d fe9c 103e 9848 d53d 9ead 893e
000000a0: c52d 303e 9839 0b3e d6c2 0d3e 0326 7f3d
000000b0: d0b7 123e 0557 aa3d 5cb3 ad3d cc23 d43d
000000c0: 4341 c63d 3141 213e 9b6b 143d c4a1 a83d
000000d0: 35df fe3d 40e8 cd3d c670 6d3d 396a a43d
000000e0: 4b71 a73d 564f ef3d 6cb8 243e b972 de3d
000000f0: 9780 9c3d fe68 d23d 354d 113e e943 1b3d
00000100: 2e5b 103e 16ba 2b3e 007a b03d 00fb 903d
00000110: 01cf 053e a140 b43d 29ce 893d 95da 493e
00000120: 385b a83d 6fbc 153e 1e69 723d 7f52 ba3d
00000130: 3271 b03d 10cf 6e3d da83 f83d 54b0 333e
00000140: 2675 073e 42db 923d 99cf 043e 6101 973d
00000150: 7aa3 293e 33c7 053e dfae d93d 01b1 073e
00000160: 1cc5 e53d 8a1f 133e 6435 c13d b9b2 913d
00000170: 1aa7 b43d 5308 f63d 1f51 733d 2c0a 0f3e
00000180: 5602 dc3d 121e a83d 083e ef3d 804f f83d
00000190: 3592 9f3d 854b 6c3d 0ac4 a33d 3a11 0f3e
000001a0: 37f2 a83d 4dbf d23d cd36 973d fd2c 033e
000001b0: e1db 0f3e 0966 223e d653 843e 3d00 0c3e
000001c0: d6b2 b03d c1c8 ca3d fd88 783d 320f a33e
000001d0: f2dd ad3d 4e14 093e 5d6e fa3d 7ca1 f33d
000001e0: 87ef ce3d a3f7 de3d 19eb 773d 068b 093e
000001f0: 3552 4a3e 818d 213e 1f9b 043e 47e9 e33d
00000200: eaf5 dd3d b5af 0d3e 7ddd b43d c4c2 be3d
00000210: e342 2e3e fb4b 433e 6771 c33d 8e89 f33d
00000220: 4138 0b3e dab4 d43d 10c1 eb3d 08d0 5e3d
00000230: 2767 ec3d 5255 823d 5bbb 2a3d 2598 d03d
00000240: e168 f13d c9dc 1e3e ba6e 1e3e 82db 0a3e
00000250: 971b ba3d a836 873d a0b8 ad3d 8c5d 7a3d
00000260: e958 ab3d 5461 e93d ede3 663d 1433 0c3e
00000270: f5e7 dd3d 5211 303e 5b30 2e3d 1bd2 a23d
00000280: 99d8 133d d0b5 cc3d 54ed 1d3e eca1 9d3d
00000290: d005 d23d 11e0 d13d 4db5 d83d fe8f f33d
000002a0: cd4b de3d 2517 983d 60f1 f63d 8972 363e
000002b0: 7d5d 8d3d 8a69 8b3d 2b68 9e3d 3399 943d
000002c0: a786 a23d 6418 8c3d 6f30 973d 3a51 383d
000002d0: d368 223e 28dc 2e3e d890 123e 2108 0a3e
000002e0: b6b8 c03d 7ff2 263e 976f fc3d ac3d 973d
000002f0: 1fd6 c93d c547 f93d c54b 5e3d dfb5 eb3d
00000300: 7bd8 103e 9f23 1e3e 01e7 c43d 2e23 473d
00000310: cfe7 ce3d ca2a 463e 6ede e03d 3be2 083e
00000320: 0115 ac3d 714f 0b3e cdf8 683e 3fb4 d33d
00000330: 27f2 7d3d 27c1 1e3e 3139 2f3e 20b8 003e
00000340: e393 183d 2f5d 0d3e 0601 463d a128 0b3e
00000350: 67a3 223e 9cb5 9a3d fa57 813e 6fd6 153e
00000360: 1f73 ab3d f074 803d 0b8e ca3d 11c4 093e
00000370: 8bb4 0a3e 5f2d 063e 2bf6 173e 606e 623e
00000380: 0977 bc3d 5078 b63d 599c 2e3e 2634 273d
00000390: 1b4c 603d 3de0 053e 0e0c 073d 9f20 d33d
000003a0: 282e 263e 1711 373e e2df 133e 0908 bc3d
000003b0: 3211 b53c 81c0 3a3e 5da6 e93d 444a b73c
000003c0: 2e79 eb3d 125b 123e 3e4a da3d 8e74 483d
000003d0: 8e53 343e 863a a03d bf0d c93d 0982 2d3d
000003e0: ab36 913d d302 093e da30 b73d c0b2 913d
000003f0: 31c0 0e3e a75c b83d 0e69 903d 3242 fb3d
0.09892754 0.18732135 0.07544265 0.15321863 0.11951444 0.12112174 0.16559882 0.1044707
0.07517505 0.06411023 0.028411131 0.13058855 0.2404662 0.09998481 0.113197155 0.14268166
0.048753344 0.07685114 0.10106174 0.08937849 0.12639372 0.11279863 0.13263947 0.17152229
0.07212907 0.07533606 0.18002379 0.027884945 0.1263729 0.12886867 0.10099806 0.11376204
0.061661735 0.120687045 0.08476141 0.12707306 0.070946045 0.14122388 0.10414237 0.26890272
0.1720496 0.13596189 0.13843855 0.06229211 0.14327931 0.08317379 0.08481476 0.1035839
0.096804164 0.15747525 0.036235433 0.08233979 0.12444917 0.10054064 0.057968877 0.08028073
0.08175906 0.11685054 0.16085976 0.10861725 0.07641714 0.10273932 0.14189608 0.03790656
0.14097282 0.16770205 0.0861702 0.070791245 0.13067247 0.088013895 0.06728775 0.19712289
0.082205236 0.14622663 0.05918228 0.09097766 0.0861534 0.05830294 0.12134524 0.17547733
0.13228282 0.07170726 0.12969817 0.0737331 0.16566268 0.1306427 0.10629057 0.13251115
0.11219236 0.143675 0.094340116 0.07114167 0.088209346 0.120133065 0.059403535 0.13968724
0.10742633 0.082088605 0.116817534 0.121245384 0.07791559 0.05768921 0.07996376 0.13971415
0.08249324 0.10290394 0.07383499 0.1281013 0.14048721 0.15859236 0.25845212 0.13671966
0.0862786 0.09901572 0.060677517 0.3184753 0.08489598 0.13386652 0.122280814 0.11896035
0.1010428 0.10887077 0.06052694 0.1343194 0.19757922 0.15776636 0.12949799 0.111284785
0.1083792 0.13836558 0.08831308 0.09314492 0.17017703 0.19071953 0.09543114 0.11891471
0.13595678 0.10386057 0.11511433 0.054397613 0.11543112 0.0636393 0.041682582 0.10185269
0.11787582 0.1551391 0.15471926 0.13560298 0.090872936 0.06602222 0.0848248 0.06112437
0.08366568 0.11395517 0.05636971 0.1369136 0.10835258 0.17194107 0.042526584 0.07950231
0.036095235 0.099956155 0.15422565 0.076969 0.10255015 0.102478154 0.105814554 0.11892699
0.108543016 0.074262895 0.120577574 0.17817129 0.06902597 0.06807239 0.07734712 0.07255783
0.07935839 0.0684059 0.07382285 0.04499934 0.158603 0.1707617 0.14313066 0.13479663
0.09410231 0.16303442 0.123259716 0.0738481 0.098552935 0.12171892 0.05427148 0.115092985
0.14145081 0.15443276 0.09614373 0.048617534 0.10102808 0.1935226 0.10979925 0.1336755
0.08402444 0.13604523 0.2275116 0.103371136 0.061998513 0.1550337 0.1711166 0.12570238
0.03725041 0.13805078 0.04834082 0.13589717 0.15882646 0.075541705 0.25262433 0.14632581
0.08371567 0.06272304 0.09890374 0.134537 0.13545434 0.13103245 0.1484 0.22112417
0.09202392 0.089096665 0.1705183 0.040821217 0.05476008 0.13073821 0.03297048 0.10308956
0.16228545 0.17877613 0.14440873 0.0918122 0.022102926 0.18237497 0.114086844 0.02237428
0.114977226 0.14292553 0.10658692 0.04893928 0.17609999 0.078236625 0.09817075 0.04236034
0.07090505 0.13379984 0.089448646 0.07114172 0.13940503 0.09002047 0.070512876 0.12268485

attention1.attention.weight f4 [1, 256]
00000000: 7e81 4e81 0349 8b81 18c8 1900 b02a 3c01
00000010: 5555 8481 b06c 9d81 a82b 5980 fdd6 1f01
00000020: 3ceb 1700 acf1 4d01 d839 1901 1eac 2581
00000030: 602a 5081 2f3f 8301 bc53 f000 0a8e 6280
00000040: 6403 4d01 840d be80 10f3 0d81 09cc 1a01
00000050: 3c93 9780 bb18 1b81 3ce3 f100 88c4 d180
00000060: f25c 2981 8cd4 d300 7a5a b081 f0b2 2f81
00000070: e138 3301 3288 2a00 2711 a981 dc15 3b01
00000080: 48da 4601 84cc 1881 f0c7 1600 9866 9281
00000090: 0fe4 8601 f4ad 4000 0aa9 8981 9c3d 4980
000000a0: b48f 5780 ca0e 2781 923a a601 40af ad00
000000b0: 5f26 9f01 bc3b 2081 28a3 9d00 46fc bc81
000000c0: 2962 5781 8c5e ac80 68d8 1f01 9cb3 1601
000000d0: d587 4e81 70a0 c400 fe5b f280 82a8 ed00
000000e0: 38cc 1c00 9444 3981 6451 3e81 8c20 9680
000000f0: 812f b601 280f 3a81 f65e 0701 18e8 b500
00000100: 55ac 1d01 c25d 5880 74f7 9b80 684f 0a81
00000110: 2ca7 2301 eeb4 8981 ae0c 5a01 de6a a081
00000120: 460b 0900 05a7 7801 927f 8880 14bd 3981
00000130: 20ae 1081 4ee8 9981 b4bd 1480 56c5 8281
00000140: f851 7e81 40f1 9b00 c55b 7a01 0dc9 9d81
00000150: 2839 6600 73c3 3f01 f52a 3901 f6f5 4e00
00000160: 683f 1581 181d 1e80 80c1 1601 c4ff 8e01
00000170: eb4e 1381 18e2 6600 4a66 1481 6411 2e01
00000180: 5c12 8381 32b9 9601 b042 9600 0a1c 9f81
00000190: 90ec a680 c0da 4100 565a 9d81 54ea 1781
000001a0: 9dec 4901 2816 6901 2550 2281 440b 4281
000001b0: f028 fc00 c8af f200 e8d2 b600 e252 ea00
000001c0: b668 8a81 e8f6 1081 1458 3100 22c9 3180
000001d0: 9cdb 5901 866e af00 2bbd 5181 50db 7e00
000001e0: 96cd 8201 5055 1e80 3c55 4e80 224c 9181
000001f0: 0e93 a601 60dc 9f00 712a 7f01 aeb9 1b00
00000200: ecf7 9001 8462 ec00 01a0 9481 6080 f380
00000210: 071a 8781 7f69 8301 6a67 3281 4c0e 0300
00000220: f806 5180 1c8e 4a81 7694 1581 7e35 ba80
00000230: 1037 8480 0c3d 9b01 247c ed00 ac42 8300
00000240: 26c1 5600 01df 6c01 54c0 4181 6e14 9301
00000250: d5ff 1481 7a09 9401 3f1c 9681 8084 5481
00000260: 8494 7601 983f 3280 589f 8d80 90f8 5901
00000270: 30b1 5b80 3b28 7c81 4481 7081 9af6 7880
00000280: 0c3f 7100 6a8a 0a80 c093 0d00 7cbf f400
00000290: 04ea 7601 6814 a281 d2c1 0e81 2429 e800
000002a0: dc60 e500 76f0 1981 009f 8e80 14b3 4700
000002b0: b4c2 6800 27aa a281 82b1 4801 50fd 5f80
000002c0: 5e7b b800 4c76 5a80 c495 2701 9c4a 2501
000002d0: 4813 8280 7075 f700 6396 b401 5248 8c81
000002e0: ba8e 8c00 8019 f300 1813 c300 c04d 4780
000002f0: d4ef 7681 0845 2581 60a3 1400 e095 2400
00000300: a24f 5781 3c90 7301 c814 3680 74bb e880
00000310: 1235 3900 5618 5b81 9a0c 0a00 1cc9 2381
00000320: e92d 1681 d898 0500 4801 3281 bcde e000
00000330: f8a4 4d81 3cfe 8781 2c96 d800 e5e3 b901
00000340: 7e46 5300 6276 1881 1230 6581 52f2 3381
00000350: c8bb e000 6bf7 4101 30cb 3481 6832 3600
00000360: 4b2a 5881 72f0 7181 98c2 0f00 0987 9681
00000370: bb64 9201 ec01 8101 7020 3500 8e10 3180
00000380: b885 2e00 4eea a401 e52c 8b01 ccb3 8081
00000390: 6404 ff80 9c89 1681 46fe 0781 081b 4580
000003a0: 84d7 9f81 7f47 ab01 6c17 a400 72dd 9301
000003b0: 24cf 8e81 85db 7681 dea7 2780 bb44 8b81
000003c0: f8c4 9681 e84d 2200 3426 3180 d905 1681
000003d0: a48a 3b00 b8a7 2101 4f83 7981 08b5 8900
000003e0: 870d 4b81 2a5c 8f80 7e9d 8a81 8443 8781
000003f0: 4685 ab81 217d 2181 2c08 9c81 6480 2100
-3.792913e-38 -5.11653e-38 2.367668e-39 3.4560773e-38 -4.861159e-38 -5.782865e-38 -8.18902e-39 2.9357934e-38
2.196603e-39 3.7825944e-38 2.8143163e-38 -3.0429202e-38 -3.823397e-38 4.8212464e-38 2.2070557e-38 -9.050833e-39
3.7654986e-38 -1.7453593e-38 -2.6072e-38 2.843172e-38 -1.3919978e-38 -2.8486747e-38 2.2213871e-38 -1.9264121e-38
-3.1107083e-38 1.9453537e-38 -6.4782017e-38 -3.2270805e-38 3.2917916e-38 3.905949e-39 -6.210541e-38 3.436216e-38
3.6523466e-38 -2.8064724e-38 2.092105e-39 -5.3779145e-38 4.9551074e-38 5.939874e-39 -5.056841e-38 -6.726092e-39
-8.041239e-39 -3.0683666e-38 6.1062814e-38 1.5950409e-38 5.8462435e-38 -2.9430216e-38 1.4476702e-38 -6.942229e-38
-3.955969e-38 -1.5829622e-38 2.9358952e-38 2.7679512e-38 -3.793368e-38 1.8057311e-38 -2.225719e-38 2.1825462e-38
2.644654e-39 -3.4028336e-38 -3.4955883e-38 -1.3787e-38 6.6924406e-38 -3.417368e-38 2.4863715e-38 1.6705484e-38
2.8959988e-38 -8.115158e-39 -1.4323271e-38 -2.5403568e-38 3.0058312e-38 -5.0585473e-38 4.0049374e-38 -5.8928064e-38
8.30564e-40 4.5670237e-38 -1.2535391e-38 -3.411479e-38 -2.6573551e-38 -5.6536665e-38 -1.904763e-39 -4.803762e-38
-4.6711242e-38 1.4321046e-38 4.598359e-38 -5.7961185e-38 9.387724e-39 3.5221387e-38 3.4009954e-38 7.251403e-39
-2.741247e-38 -2.765502e-39 2.7689478e-38 5.252957e-38 -2.7056257e-38 9.448328e-39 -2.7256696e-38 3.197123e-38
-4.8148144e-38 5.536704e-38 1.3799247e-38 -5.844761e-38 -1.5329555e-38 6.04778e-39 -5.780232e-38 -2.7902442e-38
3.708763e-38 4.2811238e-38 -2.9812202e-38 -3.5640255e-38 2.315723e-38 2.2287249e-38 1.6789719e-38 2.1519239e-38
-5.0843447e-38 -2.662577e-38 4.531536e-39 -4.572092e-39 4.0014167e-38 1.611086e-38 -3.852296e-38 1.1649947e-38
4.804946e-38 -2.785669e-39 -7.193745e-39 -5.3373833e-38 6.118978e-38 1.46809e-38 4.6866553e-38 2.546168e-39
5.3252996e-38 2.1708518e-38 -5.459621e-38 -2.2362078e-38 -4.9628515e-38 4.827318e-38 -3.2767633e-38 2.80635e-40
-7.441175e-39 -3.72035e-38 -2.7473493e-38 -1.7100592e-38 -1.2142038e-38 5.7025606e-38 2.1809546e-38 1.2054367e-38
7.967141e-39 4.3506352e-38 -3.558649e-38 5.4028587e-38 -2.7366857e-38 5.438021e-38 -5.514183e-38 -3.9033314e-38
4.528962e-38 -4.614588e-39 -1.3005967e-38 4.003494e-38 -8.420593e-39 -4.6313954e-38 -4.4173782e-38 -1.1108724e-38
1.0400028e-38 -9.68009e-40 1.246864e-39 2.2476553e-38 4.5350962e-38 -5.9538683e-38 -2.622034e-38 2.1320594e-38
2.1065075e-38 -2.8274184e-38 -1.3097679e-38 6.584561e-39 9.620738e-39 -5.975356e-38 3.6861554e-38 -8.815244e-39
1.6941987e-38 -8.307632e-39 3.0780507e-38 3.0359243e-38 -1.1945531e-38 2.2725496e-38 6.633735e-38 -5.153165e-38
1.290817e-38 2.2325173e-38 1.7914771e-38 -6.548212e-39 -4.5355132e-38 -3.035524e-38 1.895318e-39 3.359843e-39
-3.9546397e-38 4.4735534e-38 -4.966572e-39 -2.137308e-38 5.253661e-39 -4.0241407e-38 9.22876e-40 -3.008266e-38
-2.7583588e-38 5.14007e-40 -3.2694356e-38 2.0651053e-38 -3.7770913e-38 -4.9955976e-38 1.9890339e-38 6.828528e-38
7.647634e-39 -2.8002926e-38 -4.2095146e-38 -3.3050964e-38 2.0638514e-38 3.5626015e-38 -3.3206558e-38 4.977199e-39
-3.9703278e-38 -4.443722e-38 1.44734e-39 -5.5295064e-38 5.377647e-38 4.7389874e-38 4.878918e-39 -4.505878e-39
4.272402e-39 6.0580296e-38 5.1124956e-38 -4.727777e-38 -2.3419627e-38 -2.764938e-38 -2.4978016e-38 -6.346346e-39
-5.8716625e-38 6.291807e-38 1.5069424e-38 5.431703e-38 -5.2459794e-38 -4.5340562e-38 -3.641804e-39 -5.115916e-38
-5.5383934e-38 3.150354e-39 -4.513644e-39 -2.7554844e-38 5.468029e-39 2.9691362e-38 -4.5828286e-38 1.2646405e-38
-3.7294917e-38 -1.3165538e-38 -5.0919184e-38 -4.968805e-38 -6.300672e-38 -2.9660805e-38 -5.7317076e-38 3.076629e-39
