backend/model_store/transaction_dnn_model.pth (torch, 201140 bytes, 20 tensors)

network.0.weight f4 [256, 19]
000000 93 6e 07 bd dd 6e 92 3c b4 f7 13 bd 57 5c ee bb
       -0.033064436 0.01787513 -0.0361249 -0.0072741914
000010 88 a6 70 3d 60 14 54 3e 83 fe 32 3e c1 d0 7b 3d
       0.058752567 0.20710897 0.17479901 0.06147838
000020 2d 79 13 3d 47 3a ad 3d 10 f8 8c bd 0b 2c 94 bd
       0.036004234 0.08458381 -0.06883252 -0.07234963
000030 dc 7c 55 bd 4a 18 00 bd 98 f0 48 3e e8 07 9c 3d
       -0.05212103 -0.031273164 0.19623029 0.076186955
000040 b9 15 1a be 46 f9 89 bc 39 6f 24 3d 0d c9 cf bc
       -0.15047349 -0.016842496 0.040145133 -0.025364423
000050 f4 ac 57 be 54 93 0e 3e 6d 17 09 3e 79 80 05 3e
       -0.2106207 0.13923389 0.13387842 0.1303729
000060 fe ea 0a be b8 af a9 3d ba a3 ef 3d 51 bf 2c bc
       -0.13566205 0.08285469 0.1170115 -0.01054366
000070 d7 d5 16 bd 15 b0 9f 3d 6b 31 89 3d 19 c5 26 3e
       -0.036825027 0.07797257 0.06698879 0.16286124
000080 6f e8 a9 bd 68 0d 1f bd 82 af 9f bd 02 15 cc bd
       -0.08296286 -0.038831145 -0.07797147 -0.099649444
000090 e5 72 1d be 79 34 8f 3d a3 1e 4c 3e c0 16 95 3d
       -0.1537586 0.0699243 0.19933562 0.0727973
0000a0 e0 2e db 3d da f3 27 3e 3d 52 19 be e2 5f aa bc
       0.107023 0.16401616 -0.14972778 -0.020797674
0000b0 7e 2b c3 bd da 62 03 3e a5 b1 00 bb 42 b5 95 bd
       -0.0952978 0.12830678 -0.0019637134 -0.07309963
0000c0 9e 63 26 be 50 ef 10 be 0e c4 87 be 80 ce a5 bd
       -0.16248938 -0.1415379 -0.26516765 -0.080960274
0000d0 f1 45 4c 3e ee 98 22 3e 36 0e 18 be 68 d9 bb 3c
       0.19948556 0.1587865 -0.14849171 0.022930816
0000e0 86 16 1c be c2 d0 42 bd 1d b6 c2 3d 51 bf 12 be
       -0.15242967 -0.04756237 0.095073916 -0.14330794
0000f0 83 44 b2 bc cb 32 e0 bc 0b b5 9f bd 99 33 5c 3d
       -0.021761185 -0.02736797 -0.07798203 0.053760145
000100 8d 71 15 3e 9f 1d f7 bd e9 04 e5 3d 01 e2 08 be
       0.14594097 -0.12066197 0.11182577 -0.13367464
000110 7e 25 04 be a7 fa 73 be 2c c5 0e be 02 1f e4 bd
       -0.12904927 -0.23826085 -0.13942403 -0.11138727
000120 64 0a 1a bd 6c e1 6e bd fd 3f 31 be 3e 37 11 3e
       -0.037607566 -0.058320448 -0.17309566 0.1418123
000130 d5 d1 3d be 46 58 ba 3d 41 d1 e4 bc 8d 1a 3e be
       -0.18537076 0.09098868 -0.027931811 -0.18564816
000140 b5 3d 0f 3e be d1 b7 3c c4 36 38 3d 6f 4d 61 3e
       0.13988383 0.02243888 0.044974104 0.22002195
000150 9e ec f7 bd 09 e1 03 3e ff c2 43 be 54 35 ab 3d
       -0.12105678 0.12878813 -0.19117354 0.08359781
000160 f5 1c c4 3d 5d 9e 42 3e ec 71 03 3d 4f c9 6f bd
       0.095758356 0.19005723 0.032091066 -0.058541592
000170 4c 31 dd 3d 59 74 dc 3d 1c 0e 18 3d d3 98 15 bd
       0.10800418 0.10764379 0.03712283 -0.036522698
000180 1c 61 ce 3d 4f b5 9e bd 82 19 1c 3e dc 12 ab bd
       0.10077116 -0.077494256 0.15244105 -0.083532065
000190 86 ba 16 be 73 a3 15 be be 0e ae 3d bb ba 0f 3e
       -0.1471959 -0.14613132 0.084989056 0.14036076
0001a0 64 1b 1d 3c c9 1d 6b 3e c3 09 4e bd f1 0f d0 3d
       0.00958905 0.22960581 -0.05030228 0.101592906
0001b0 e5 d7 28 3e ab a4 67 3b d6 92 3e be a3 7d f1 3b
       0.16488607 0.0035345952 -0.18610701 0.0073697134
0001c0 02 19 33 3e 67 f4 41 3d 46 c6 fd 3d f6 83 06 3e
       0.17490008 0.04735222 0.12391333 0.13136277
0001d0 43 94 4c bd ff 0c 0f be 86 f6 01 3e 03 38 2a be
       -0.04994608 -0.13969801 0.12691697 -0.1662293
0001e0 02 eb 5f be 90 55 4e be 31 00 df 3d 1c b1 42 3d
       -0.21866992 -0.20149827 0.108887084 0.047532186
0001f0 f8 2f a6 3e 89 40 89 3d de bd 1b 3e d6 4b 0a be
       0.32458472 0.06701762 0.15209147 -0.13505492
000200 8a 52 e3 bd 3e 44 d1 bb 46 b0 8c 3d ec 86 5a bd
       -0.110997275 -0.006386309 0.06869559 -0.053351328
000210 c0 49 14 be 3f c5 54 bd 36 33 fc 3d 00 5e e2 bd
       -0.14481258 -0.05194592 0.12314455 -0.11053085
000220 53 39 7d bb fa 74 60 3d c3 2d c2 bd aa 4a 1a bd
       -0.0038638904 0.054799058 -0.094813846 -0.03766886
000230 24 7d db bd 06 15 80 be 61 81 d0 bd d1 47 9a 3d
       -0.10717228 -0.2501604 -0.10180927 0.07533229
000240 ef 33 60 3d f9 26 59 3e be 71 49 be c2 f4 13 be
       0.054737028 0.21206273 -0.19672295 -0.14448836
000250 15 35 e0 3d 2c 81 91 bb 0f 4d fe 3c 92 df cc bd
       0.109476246 -0.0044404473 0.031042604 -0.1000358
000260 7b f8 aa 3c d3 41 24 bd 5b a6 44 bd b0 c8 b1 3d
       0.020870438 -0.040101837 -0.04801021 0.08680856
000270 5c 13 1c bd b5 3b 9e bc 3f c3 f1 bd b2 53 94 bd
       -0.0381044 -0.01931558 -0.11804818 -0.07242526
000280 f9 6a 82 3d 7a fc 05 be e0 83 80 3e c4 ea af 38
       0.0636806 -0.13084593 0.25100613 8.388379e-05
000290 73 b9 9d 3e 63 3e c6 3d 67 53 bd bd 33 22 21 be
       0.3080555 0.09679868 -0.09244423 -0.15735702
0002a0 5c 10 06 be 4e 7f 8d bb f5 b8 82 bd af ad 68 3d
       -0.13092178 -0.0043181544 -0.06382934 0.056806263
0002b0 e6 db 45 3e 7e a7 e2 bd 6e 4e 6e 3d 77 b6 59 be
       0.19322166 -0.11067103 0.058180265 -0.21261011
0002c0 d1 7e c1 bd fd d8 32 3e a2 ab e3 3d 98 24 c3 3d
       -0.094480164 0.17465587 0.11116721 0.09528464
0002d0 0c 90 49 bd 79 28 19 be a3 30 0b 3e b7 75 98 bc
       -0.04920964 -0.14956845 0.13592772 -0.018610818
0002e0 5f e7 aa bd 27 c7 a5 bd 28 3f b3 3d ba 66 1f 3e
       -0.08344912 -0.08094626 0.087522805 0.15566531
0002f0 eb 9f 21 3d 49 0c 46 3e 41 71 f6 bd 14 22 9e 3d
       0.03945915 0.19340624 -0.1203332 0.07721344
000300 67 0b 2c 3c 6d 67 f6 3d e2 84 11 be 33 4d f1 bd
       0.010500765 0.12031446 -0.14210847 -0.11782303
000310 fd 47 f2 3d 12 13 0b 3e cb 2f 48 3d 08 00 c2 ba
       0.11830137 0.13581493 0.048873704 -0.0014801035
000320 66 29 43 bc e9 35 34 3e ae 9c e1 bc c1 f0 cc 3d
       -0.011911726 0.1759869 -0.027540531 0.10006858
000330 b9 14 b1 ba 91 22 31 be d3 f1 26 be b0 f9 c5 3c
       -0.0013510204 -0.17298342 -0.16303186 0.024166912
000340 28 3a 2f 3e be f3 0c be f2 d0 cf bb bc ba 1a be
       0.17112029 -0.13764855 -0.006342047 -0.15110296
000350 4b 18 9b 3d 22 96 dd 3d 95 15 e8 3d 4a f2 aa 3d
       0.07572993 0.10819651 0.113322414 0.08346994
000360 c4 f7 e2 bd 77 82 2a 3e dc 6c 18 be e1 8c 21 bd
       -0.11082414 0.16651331 -0.14885277 -0.039440993
000370 4a 56 19 3e 56 de 64 be 4c 24 50 3e 00 94 e1 ba
       0.14974323 -0.2235044 0.20326346 -0.0017210245
000380 51 d3 23 be d3 99 7b 3d 30 78 ec 3d bb c1 7c 3d
       -0.1599858 0.061425995 0.115463614 0.061708193
000390 88 5f 31 3c 65 36 bb bd cb f1 5e bd f8 fc 25 be
       0.010825999 -0.09141234 -0.05442981 -0.16209781
0003a0 a6 b3 ff bc 5f 84 2b bd ac 2c 25 be 5c ec 94 bd
       -0.031213593 -0.041874286 -0.16130322 -0.072716445
0003b0 72 54 1b 3e 6c b3 16 3e 9e c3 8d bc 21 7f ce 3d
       0.15168932 0.14716882 -0.017305192 0.10082842
0003c0 27 8a c7 bc c4 6a 40 be a7 8e 50 3e a0 c9 9e 3c
       -0.024357868 -0.18790728 0.20366918 0.019383252
0003d0 ca 2b 43 3e 6e 30 3d be b6 e2 ee 3d 7c 1d 3b be
       0.19059673 -0.18475506 0.116643354 -0.18272966
0003e0 b8 1d d3 3a a4 20 31 be 49 b8 81 3d 22 9e 59 bc
       0.0016106879 -0.17297608 0.06333978 -0.013282331
0003f0 87 27 6a bd 9d c6 06 be 0f f5 8b bc 06 bb 2b 3e
       -0.057166602 -0.13161702 -0.017084626 0.16770563

network.0.bias f4 [256]
000000 9b 3a 00 33 89 af 39 34 d2 b9 93 34 e4 9b e5 b1
       2.9855624e-08 1.7293327e-07 2.7516086e-07 -6.6825e-09
000010 d2 de 3b 34 1f 06 af 33 15 c9 c3 34 cc 26 58 34
       1.7496794e-07 8.150186e-08 3.6467887e-07 2.0130682e-07
000020 32 1c 20 35 88 2a 5c b3 4e 9e bc b3 d9 e5 c1 33
       5.9645674e-07 -5.1261424e-08 -8.783228e-08 9.029072e-08
000030 fc 46 55 33 dd fd 87 33 f2 51 58 34 61 66 7f b3
       4.9657487e-08 6.332605e-08 2.0146379e-07 -5.9464927e-08
000040 d1 b3 bd 33 4a cb 94 34 90 9a e2 30 28 8b 91 34
       8.833707e-08 2.771506e-07 1.6487594e-09 2.7109604e-07
000050 05 aa d3 b1 77 81 19 b5 3f 57 4a 34 73 a2 25 b4
       -6.160237e-09 -5.718534e-07 1.8844456e-07 -1.5425921e-07
000060 a9 15 a7 32 29 14 ce b3 93 a1 68 32 d7 5d c5 b4
       1.9451209e-08 -9.5962896e-08 1.3540915e-08 -3.6762387e-07
000070 0a 1f 16 33 8c 4b 09 34 9e ff f9 b3 8e 91 4c b3
       3.4952826e-08 1.2786603e-07 -1.16414625e-07 -4.7629833e-08
000080 78 32 92 33 3a e2 82 35 0f 20 1e b4 a0 16 2c b2
       6.807835e-08 9.751595e-07 -1.472656e-07 -1.0016862e-08
000090 31 19 27 b4 b3 79 b6 33 2a 82 02 b4 0d d5 39 b5
       -1.5562252e-07 8.4971724e-08 -1.2154547e-07 -6.92279e-07
0000a0 e0 a4 97 b2 f1 9e 57 33 b8 a0 32 34 34 02 2f b4
       -1.765369e-08 5.0203145e-08 1.6636011e-07 -1.6298947e-07
0000b0 9e 63 07 b4 c6 09 de b2 80 fc 9c b2 4f 6f a9 b2
       -1.2609095e-07 -2.5848646e-08 -1.8275614e-08 -1.9724807e-08
0000c0 73 8b a0 33 b1 ca e5 b3 b1 0e 90 32 4b ed 24 33
       7.475946e-08 -1.0700513e-07 1.6770487e-08 3.8400042e-08
0000d0 42 0d 8d 33 76 52 71 b3 ab 76 d6 31 5a ac 88 33
       6.568236e-08 -5.6187183e-08 6.2417107e-09 6.364344e-08
0000e0 b2 f6 b7 33 79 1c 24 34 40 8c 81 34 fc 04 1b 34
       8.566475e-08 1.5284049e-07 2.4130168e-07 1.4437313e-07
0000f0 2d bd df b3 00 a9 1a 33 a0 4e 8b 33 45 37 a6 32
       -1.04186576e-07 3.6009624e-08 6.486994e-08 1.9350077e-08
000100 a8 71 b4 b3 f3 e2 c4 b2 49 be 01 b4 83 d3 92 34
       -8.402577e-08 -2.2920608e-08 -1.2083287e-07 2.7348514e-07
000110 8f 82 85 b3 4f 1c 08 33 7b d6 b0 33 cd 02 2f 34
       -6.2170436e-08 3.1690714e-08 8.2346524e-08 1.6299164e-07
000120 2d da 57 b4 63 63 1c 34 2c b2 d6 b2 32 ba 0f 34
       -2.0102807e-07 1.4564789e-07 -2.4993902e-08 1.338565e-07
000130 aa e4 1e 34 2b 0f 3e 34 27 eb f1 33 10 7d fa b4
       1.4798084e-07 1.7700647e-07 1.1265211e-07 -4.6657124e-07
000140 7f 0e 19 34 f9 66 e0 32 9e 47 07 33 25 c4 f5 33
       1.4254509e-07 2.6123859e-08 3.1497272e-08 1.144438e-07
000150 d9 57 7f 33 fd 71 ce 33 86 11 56 34 9b db 13 b3
       5.945171e-08 9.613357e-08 1.9936678e-07 -3.4425835e-08
000160 71 2d 0c b3 37 8a 87 b4 b7 28 b7 34 cc 3d 05 b4
       -3.263762e-08 -2.5246274e-07 3.411603e-07 -1.2409072e-07
000170 f5 6b 42 34 ce 57 81 32 2f 2b af b1 06 ba a8 32
       1.8106932e-07 1.5057505e-08 -5.0980797e-09 1.9642368e-08
000180 45 db 4f 33 2a ef 85 33 d8 33 2e 33 24 75 57 b4
       4.8395368e-08 6.236799e-08 4.0559684e-08 -2.0066051e-07
000190 fd 5d 31 34 3b 1b 24 33 b8 1e 94 b3 5e 75 db b3
       1.6518602e-07 3.820899e-08 -6.897375e-08 -1.0219331e-07
0001a0 7d c8 4e 33 c2 a2 a7 b3 15 b1 cd b4 20 b8 fc 32
       4.8145456e-08 -7.806149e-08 -3.831307e-07 2.9420391e-08
0001b0 49 e9 51 b3 a5 b5 a8 32 15 f0 82 33 2e e1 d7 b3
       -4.8873776e-08 1.9640376e-08 6.0972674e-08 -1.00526776e-07
0001c0 3c 19 fd 32 6e e9 c0 33 58 80 0a b2 bc a5 6d b4
       2.9464552e-08 8.983157e-08 -8.061839e-09 -2.2132639e-07
0001d0 f7 40 e5 32 2a 84 ee b4 23 bd fc b3 28 b2 18 35
       2.6688651e-08 -4.4427117e-07 -1.1769068e-07 5.6883664e-07
0001e0 17 a6 12 33 c0 c7 4c 34 cd c8 96 33 4d 99 dc 32
       3.4144332e-08 1.9071649e-07 7.021445e-08 2.5681084e-08
0001f0 5b 19 18 b4 2d 42 c4 b1 cf 66 48 33 a0 8a a5 34
       -1.4165327e-07 -5.711874e-09 4.6659633e-08 3.0834508e-07
000200 03 35 05 32 24 57 bf 34 66 99 2d b3 2f 98 02 b4
       7.753672e-09 3.5639925e-07 -4.0419216e-08 -1.2162558e-07
000210 18 9c 90 34 b1 cb 62 34 b9 5c 27 b5 ff 70 ab 33
       2.6935663e-07 2.1121993e-07 -6.234728e-07 7.983362e-08
000220 d4 ef d9 b3 f2 63 45 33 3b 75 84 b3 90 88 a6 b2
       -1.01484744e-07 4.5958537e-08 -6.168053e-08 -1.9387045e-08
000230 d0 6a 3e 34 3f 37 a1 33 32 6a 6e b4 84 a3 92 33
       1.7733987e-07 7.507196e-08 -2.2204111e-07 6.828398e-08
000240 8a 01 a6 b2 18 95 d8 30 8d b1 e4 33 13 47 e7 33
       -1.9325643e-08 1.5758443e-09 1.0649374e-07 1.0769704e-07
000250 4c da 9c b0 88 8e fc 33 e6 de ec b3 c4 24 a7 b2
       -1.1412538e-09 1.1760591e-07 -1.10301514e-07 -1.9458078e-08
000260 48 f0 be 33 26 59 92 34 68 b2 22 b5 86 53 86 34
       8.8912714e-08 2.7259483e-07 -6.060932e-07 2.5020216e-07
000270 99 b8 96 b3 d2 61 8f 33 b0 7e 5a b5 8c 6b 73 b4
       -7.0184974e-08 6.67675e-08 -8.1395683e-07 -2.2670264e-07
000280 ee 95 9e b4 f4 6c c1 b3 62 25 3c 34 f6 fd 53 33
       -2.9538882e-07 -9.007081e-08 1.7522464e-07 4.9358242e-08
000290 90 63 94 b4 2a 7e 20 31 db 93 db 33 1b a2 96 31
       -2.763959e-07 2.335478e-09 1.0224877e-07 4.384004e-09
0002a0 06 62 34 b3 ca f6 02 34 f6 ff 0f b5 84 1d 7e 31
       -4.1998668e-08 1.2196975e-07 -5.3644123e-07 3.6978642e-09
0002b0 eb 9e b0 b2 34 2e 77 b3 79 f5 1c b4 ef d3 15 34
       -2.0561364e-08 -5.755119e-08 -1.4617935e-07 1.3953807e-07
0002c0 c2 3e 25 b2 17 3a 42 35 31 86 05 b4 b1 5f a7 b3
       -9.6185335e-09 7.2355164e-07 -1.2435409e-07 -7.79395e-08
0002d0 00 2b 6b b2 c8 71 85 31 84 6c 09 34 21 58 d6 34
       -1.3688577e-08 3.883745e-09 1.2798597e-07 3.9924728e-07
0002e0 11 6d 2b 35 40 d6 cb 33 ec 2e 8e 33 bd cb b0 34
       6.3861177e-07 9.491896e-08 6.620925e-08 3.2930794e-07
0002f0 20 0a 18 35 ad 66 23 35 e1 ea 79 b2 72 23 8b b5
       5.6639146e-07 6.0871645e-07 -1.4547113e-08 -1.0366623e-06
000300 f7 e8 14 33 9f 3e e2 b4 97 9d 9f 33 4d 08 c1 b2
       3.4670816e-08 -4.2141343e-07 7.43268e-08 -2.2471932e-08
000310 61 8f 19 33 e5 be 86 33 9e 34 03 31 59 b7 29 35
       3.575349e-08 6.274585e-08 1.9092918e-09 6.322421e-07
000320 e5 c9 14 b5 1a 36 81 b3 a3 5c bc 32 e2 f2 b6 34
       -5.542809e-07 -6.0168716e-08 2.1928207e-08 3.4076862e-07
000330 7a 64 ce b2 42 c9 01 34 e2 d5 25 b3 6d e6 de 33
       -2.4027248e-08 1.2087278e-07 -3.861158e-08 1.0379595e-07
000340 a1 1d bf b3 08 e9 ba b3 ec 26 79 34 44 7f 83 32
       -8.89952e-08 -8.703688e-08 2.3204092e-07 1.530828e-08
000350 c6 d2 30 b5 fe 8b 8e 33 69 1a 73 33 40 70 53 34
       -6.5871825e-07 6.637855e-08 5.6601866e-08 1.9691743e-07
000360 1f d0 58 b4 52 1d e7 b2 7a 7b e4 b3 54 3a fc 32
       -2.0192282e-07 -2.6905273e-08 -1.06395376e-07 2.9363186e-08
000370 18 e2 bb 33 b5 a4 9b b4 9a 7f a7 b3 91 60 10 34
       8.748992e-08 -2.899084e-07 -7.799754e-08 1.3446176e-07
000380 46 e9 15 34 90 f1 d5 b2 68 95 9b 34 2c c5 5f b2
       1.3961571e-07 -2.4906313e-08 2.8979707e-07 -1.302514e-08
000390 fc bc 05 33 db a7 38 b3 35 6a c7 b4 7e 59 0f b3
       3.1138356e-08 -4.2993502e-08 -3.7143914e-07 -3.3376175e-08
0003a0 a0 50 01 b1 53 e8 8d 34 b6 d8 78 32 f6 bf ca 34
       -1.88178e-09 2.6432335e-07 1.4484774e-08 3.7765102e-07
0003b0 0e 6e 11 33 7c 65 0e b5 0a ab e8 b1 f4 68 fd 30
       3.3860537e-08 -5.30468e-07 -6.7715336e-09 1.8438002e-09
0003c0 94 27 13 b5 2b 00 52 b3 48 d7 1b b4 ff ca cd b4
       -5.481936e-07 -4.8894588e-08 -1.4513819e-07 -3.8331925e-07
0003d0 6b 18 a1 b4 db b5 96 33 79 2e 66 33 e6 8e 19 33
       -3.0006353e-07 7.0179986e-08 5.3593315e-08 3.5753054e-08
0003e0 2c ee 01 36 c0 6c 0c 34 a6 e6 2e 34 15 46 fa 34
       1.9361132e-06 1.3078079e-07 1.6288922e-07 4.661712e-07
0003f0 89 df 20 34 0c 35 02 33 ee eb cc 33 11 89 b9 b4
       1.4982483e-07 3.031623e-08 9.5424056e-08 -3.4558664e-07

network.1.weight f4 [256]
000000 ea 23 5e 3f e8 8e 52 3f ef 17 60 3f 8b b5 57 3f
       0.8677355 0.8224931 0.8753652 0.8426139
000010 a5 90 5c 3f e6 81 56 3f 9f 70 6b 3f 85 c7 67 3f
       0.8615821 0.8379196 0.9196872 0.9053882
000020 c5 c4 6e 3f 8c 1f 58 3f 3a 74 54 3f 66 a7 5a 3f
       0.93268996 0.84423137 0.8298985 0.8541168
000030 83 49 51 3f 1e a9 57 3f bb 0c 55 3f e7 dd 52 3f
       0.81752795 0.8424243 0.8322255 0.82369846
000040 4b b1 52 3f 9a 81 54 3f 8a 8c 58 3f ec 70 67 3f
       0.8230178 0.83010256 0.84589446 0.9040668
000050 ab 9a 51 3f b3 31 66 3f f9 7f 53 3f 52 f6 83 3f
       0.8187663 0.89919585 0.82617146 1.0309546
000060 11 5c 59 3f bc 25 57 3f 3c 02 5a 3f bc 3f 6c 3f
       0.8490611 0.84041953 0.8515966 0.9228475
000070 64 17 63 3f 56 30 81 3f 0f 2b 5b 3f ad f2 66 3f
       0.88707566 1.0092876 0.8561258 0.90214044
000080 5e 01 5e 3f 6e fc 67 3f 10 7c 62 3f a4 fa 5f 3f
       0.86720836 0.9061955 0.88470554 0.8749182
000090 8f 4b 51 3f 18 83 4b 3f 79 b4 6f 3f 14 44 6b 3f
       0.8175592 0.7949691 0.93634754 0.91900754
0000a0 a3 7c 6e 3f 78 36 61 3f 7b 4b 6f 3f 9c 05 52 3f
       0.9315893 0.8797374 0.9347455 0.8203981
0000b0 ca 83 58 3f cb a4 53 3f 3a e4 60 3f da af 5b 3f
       0.84576094 0.8267333 0.87848246 0.85815203
0000c0 2f b7 55 3f 50 88 5d 3f e1 84 4b 3f 54 46 64 3f
       0.8348264 0.8653612 0.7949963 0.8916981
0000d0 d7 8c 53 3f 34 3d 5a 3f 38 e1 50 3f 62 b1 56 3f
       0.8263678 0.8524964 0.81593657 0.83864415
0000e0 57 8a 5e 3f 60 59 4f 3f d2 60 55 3f e6 b2 67 3f
       0.8692984 0.8099575 0.8335086 0.9050735
0000f0 d8 85 55 3f 0b ae 52 3f fb d8 6a 3f a1 28 54 3f
       0.83407354 0.8229682 0.91737336 0.82874495
000100 77 b0 4b 3f 65 65 52 3f 19 34 50 3f b7 27 71 3f
       0.7956614 0.82185966 0.81329495 0.94201225
000110 b7 e2 5c 3f 93 de 51 3f f9 df 57 3f 27 11 5f 3f
       0.8628344 0.81980246 0.8432613 0.8713555
000120 9b ef 71 3f 2c 90 61 3f 1e de 50 3f 77 f7 59 3f
       0.94506234 0.88110614 0.81588924 0.85143226
000130 b8 01 65 3f fd f7 64 3f 1c 4d 7a 3f de 1f 58 3f
       0.8945575 0.894409 0.9777391 0.84423625
000140 75 e9 4f 3f c3 b0 53 3f 13 11 65 3f 0a 38 62 3f
       0.812156 0.8269159 0.8947918 0.8836676
000150 9f 3a 63 3f 78 a5 64 3f c5 a5 60 3f d2 2c 63 3f
       0.88761324 0.89314985 0.87752944 0.88740265
000160 1f 63 59 3f c8 14 59 3f ee d0 61 3f 0e e9 51 3f
       0.8491687 0.84797335 0.88209426 0.8199624
000170 2d 7f 57 3f e8 c3 58 3f bc 98 52 3f ee ba 61 3f
       0.8417843 0.8467393 0.82264304 0.8817586
000180 0c bc 58 3f 9b c1 54 3f 91 2a 6b 3f f4 95 7d 3f
       0.84661937 0.8310792 0.91861826 0.99056935
000190 24 8d 61 3f 9d 4b 5e 3f b4 83 69 3f 1b b3 54 3f
       0.8810599 0.86834127 0.9121659 0.83085793
0001a0 b1 75 6b 3f 79 f9 75 3f d7 4f 62 3f 50 66 5e 3f
       0.9197646 0.9608379 0.88403076 0.86874866
0001b0 56 47 5b 3f c6 ed 5d 3f 5e 1e 57 3f 09 ca 70 3f
       0.85655725 0.8669094 0.8403071 0.9405828
0001c0 98 db 58 3f e3 af 59 3f 2a 86 53 3f 16 38 59 3f
       0.84710073 0.85034007 0.82626593 0.84851205
0001d0 f2 a8 5f 3f 85 3e 5a 3f 8e 11 4f 3f c8 7c 5f 3f
       0.87367165 0.8525165 0.8088616 0.87299776
0001e0 99 32 49 3f e8 4a 50 3f 11 73 57 3f 36 55 50 3f
       0.7859283 0.813643 0.8415995 0.8138002
0001f0 51 29 54 3f 7d 39 65 3f 31 72 5b 3f f7 a4 66 3f
       0.82875544 0.89540845 0.8572112 0.90095466
000200 b1 aa 64 3f 28 39 7e 3f f1 f4 5c 3f 86 91 51 3f
       0.89322954 0.99305964 0.8631125 0.81862676
000210 55 5d 75 3f 2f d5 58 3f 03 8b 6c 3f 0b fa 59 3f
       0.9584554 0.8470029 0.92399615 0.8514716
000220 c9 d2 66 3f 95 94 54 3f d5 a3 51 3f 62 64 59 3f
       0.9016538 0.8303922 0.8189061 0.84918797
000230 88 e0 6c 3f 66 b7 53 3f 50 fc 71 3f 19 f1 52 3f
       0.9253011 0.8270172 0.94525623 0.82399136
000240 4c 4c 50 3f b6 a0 57 3f cd 8f 7c 3f ef 65 52 3f
       0.8136642 0.842296 0.9865692 0.8218679
000250 c6 69 4e 3f 15 a8 67 3f 13 4b 64 3f 1e da 54 3f
       0.8063015 0.9049085 0.89177054 0.8314532
000260 37 6c 67 3f aa 5f 53 3f 7c 9a 67 3f fe 32 52 3f
       0.903995 0.82567847 0.904701 0.8210906
000270 e5 0f 5a 3f b5 19 56 3f b9 61 65 3f a1 9d 57 3f
       0.85180503 0.83632976 0.8960224 0.842249
000280 c7 ea 5c 3f 3c 71 6c 3f 7e 3e 6e 3f 1c f1 60 3f
       0.8629574 0.9236028 0.93064106 0.87867904
000290 01 b2 65 3f 0d 6c 53 3f 4a 30 55 3f 0b b0 6f 3f
       0.8972474 0.8258675 0.8327681 0.93627995
0002a0 3e ec 54 3f 33 f7 6b 3f 3e 8c 75 3f d7 bc 4f 3f
       0.83172977 0.9217407 0.9591712 0.8114752
0002b0 1b 89 55 3f 58 cf 47 3f 88 95 5f 3f 84 ec 55 3f
       0.8341233 0.78050756 0.8733754 0.8356402
0002c0 44 e5 70 3f ec 68 75 3f 55 21 6b 3f 76 60 60 3f
       0.9409983 0.95863223 0.91847736 0.8764719
0002d0 5c df 58 3f 2f fd 53 3f 07 44 57 3f fc 27 57 3f
       0.8471582 0.828082 0.84088176 0.84045386
0002e0 a3 b3 71 3f aa ce 55 3f 0f f5 58 3f de 82 5f 3f
       0.9441473 0.8351847 0.8474893 0.8730906
0002f0 03 a5 5e 3f aa 9b 82 3f 34 e9 53 3f 25 df 81 3f
       0.8697054 1.0203755 0.82777715 1.0146223
000300 3f cf 56 3f ce 94 60 3f 1d 2d 50 3f e3 25 5a 3f
       0.8390998 0.8772706 0.8131884 0.8521406
000310 fb 46 5b 3f d3 5c 66 3f b1 ed 55 3f 61 f4 53 3f
       0.8565518 0.8998539 0.83565813 0.8279477
000320 4b 00 70 3f 21 c1 5c 3f c7 e6 59 3f 83 07 55 3f
       0.9375045 0.8623219 0.85117763 0.83214587
000330 66 43 63 3f ee de 57 3f c4 ff 70 3f 81 49 6a 3f
       0.88774717 0.8432454 0.9414027 0.9151841
000340 42 25 5e 3f 9b be 69 3f f5 96 74 3f 70 71 68 3f
       0.867756 0.91306466 0.9554284 0.9079809
000350 21 1a 6a 3f 40 03 4a 3f e5 66 64 3f 5e c1 50 3f
       0.9144612 0.7891121 0.89219505 0.81545055
000360 43 eb 57 3f 92 ed 55 3f 27 d4 58 3f 7c 59 60 3f
       0.84343356 0.8356563 0.8469872 0.8763654
000370 ba 78 61 3f 75 03 5d 3f 75 f8 52 3f af 37 49 3f
       0.8807484 0.863334 0.82410365 0.7860059
000380 ba 93 66 3f 1d 97 58 3f b6 25 74 3f 4d 42 58 3f
       0.9006916 0.8460558 0.9537004 0.84476167
000390 01 61 51 3f d4 4d 6a 3f 5b 44 54 3f c1 52 5c 3f
       0.8178864 0.91525006 0.829168 0.8606377
0003a0 bb 2a 54 3f 2c fd 68 3f c9 15 49 3f a8 63 54 3f
       0.828777 0.9101131 0.78548867 0.82964563
0003b0 8e 1c 5a 3f ea 51 71 3f 76 3d 59 3f 56 06 50 3f
       0.8519982 0.94265616 0.84859407 0.8125967
0003c0 b1 40 5e 3f b8 d9 52 3f 3e 75 62 3f 7b 74 5a 3f
       0.8681746 0.8236346 0.8846015 0.85333985
0003d0 df 6d 4d 3f c8 43 5f 3f c2 41 5d 3f d4 42 58 3f
       0.80245775 0.872128 0.86428463 0.8447697
0003e0 80 22 54 3f 18 04 4e 3f 82 78 5d 3f 9c f0 66 3f
       0.8286514 0.80474997 0.86512005 0.9021089
0003f0 df 83 6b 3f 9e 44 5c 3f 8a 16 4b 3f 62 8f 5f 3f
       0.91998094 0.860422 0.79331267 0.8732816

network.1.bias f4 [256]
000000 79 cf f2 3b 39 4e c2 bc 58 f7 49 bc b4 12 b2 bc
       0.0074099866 -0.02371894 -0.012327038 -0.021737434
000010 10 65 e7 3b cc b4 a3 bc d6 8a c7 bc 1a 5b 30 3b
       0.007061608 -0.019983672 -0.024358194 0.002690977
000020 85 32 4c 3c 9e f2 fb bb ed 4c 2a bc 83 c0 92 bc
       0.012463217 -0.0076888343 -0.010394317 -0.017914062
000030 45 82 6d bc 1b ac cb bc ec 02 d3 bc 0a d0 de 3b
       -0.014496391 -0.02486234 -0.02575823 0.0067997025
000040 6b aa 05 3b 93 be d7 bc 59 b8 53 3c 31 e0 24 bb
       0.0020395766 -0.02633599 0.01292237 -0.0025158043
000050 45 94 d0 bc 52 a5 a8 bb 32 d7 3c 3a 7b da fc 3c
       -0.025461325 -0.005146661 0.00072036975 0.030865898
000060 af 9f 0b 3c 30 04 8e bc cc 15 46 bb 0c 98 2f b8
       0.008521958 -0.017335981 -0.0030225394 -4.1864856e-05
000070 4a f9 fb 3b 02 d9 12 3d bd 57 f4 bb 37 b9 7f 3c
       0.0076896297 0.035851486 -0.0074567483 0.0156081235
000080 13 16 73 bc c6 0d 14 3c c1 70 6f 3c cb 55 bd 3c
       -0.014836806 0.009036487 0.014614285 0.023112198
000090 98 59 87 bc fb 8a 47 bc b9 01 25 3c 76 70 e8 3c
       -0.016522214 -0.012179132 0.0100712115 0.028373938
0000a0 2e 02 a9 bc 6a b6 aa bc 43 08 f3 3c 9a ab ea bc
       -0.020630922 -0.020838935 0.029667025 -0.02864628
0000b0 8a a1 14 bc 78 68 d1 bc 7f 72 77 3b 39 5f ea 3b
       -0.009071717 -0.02556251 0.0037757454 0.0071524647
0000c0 c2 4f c1 bc 5f 96 8e bc 79 1f ed bb 16 bb 1a 3d
       -0.023597602 -0.017405687 -0.007236418 0.037776075
0000d0 29 b2 a4 bc 8d 2c b1 bc 76 45 24 bd 19 de b4 bc
       -0.020104485 -0.021627689 -0.040105306 -0.02207856
0000e0 fa 40 d7 3a da 73 50 bc 31 9b 68 bc ae 8e 3b bc
       0.0016422563 -0.012722934 -0.014197157 -0.011447592
0000f0 44 98 9e bc 12 70 00 bd c6 ac 04 3d bf 27 e1 bb
       -0.019359715 -0.03135688 0.032391332 -0.006871193
000100 85 08 8a 3b 11 f4 3c bc c8 40 57 bc 0e 7a cc 3b
       0.0042124414 -0.011532799 -0.013138004 0.006240136
000110 a8 a1 a1 3a 93 a1 8a bc 3b 17 87 bc f6 14 e1 b9
       0.0012331503 -0.016922748 -0.01649057 -0.0004293096
000120 8e 23 03 3d dd 20 f1 ba 3b 1a d5 bc 32 77 16 bd
       0.03201633 -0.0018396635 -0.026013484 -0.036734767
000130 06 5f ac 3c 72 69 be 3c 93 d1 50 3c 6d 69 a6 bb
       0.021041404 0.02324364 0.012745279 -0.0050784857
000140 44 c0 3e bd dd 80 7b bb 64 6b 9b bb 3a f6 9b 3b
       -0.046570078 -0.003837637 -0.0047430266 0.004759577
000150 6a 27 20 bc 05 cc e9 bb 64 5d 4d bc 2d cb 34 3c
       -0.009775022 -0.0071349167 -0.012534473 0.011034769
000160 32 fa eb bb 59 28 6a bc d7 58 ab 3c 43 f8 80 bc
       -0.0072014565 -0.014291846 0.020916386 -0.01574338
000170 07 ae a6 bb 6d 5a 03 bd 09 d6 ab bc 1e a6 1e bc
       -0.0050866636 -0.03206866 -0.020976083 -0.00968316
000180 10 43 c6 bc 67 4e 86 bc 56 60 33 bd da 60 5b 3d
       -0.0242019 -0.016394807 -0.043793045 0.05355916
000190 1e 02 0e 3a e4 3b f2 bc d5 8a d0 ba 27 5e f9 bc
       0.00054171856 -0.029569574 -0.0015910516 -0.030440403
0001a0 66 6b 45 3d 50 5b cb 3c 95 e8 cc ba c7 79 12 bc
       0.048198126 0.024823815 -0.001563328 -0.008940167
0001b0 c1 fd 8a bc c1 20 e0 bc 2a bf 82 bb 9e 85 99 bc
       -0.016966702 -0.027359368 -0.0039900737 -0.018740471
0001c0 f2 33 a7 bc ae a2 a2 3b 8f fb 58 bc 0a 55 83 bc
       -0.020410512 0.0049632406 -0.01324357 -0.01603176
0001d0 69 c3 34 bc 71 a0 37 bc 9f a2 e3 bc 61 45 62 3c
       -0.011032918 -0.011207686 -0.027787505 0.0138104865
0001e0 69 4e c6 bc 24 cd e1 bc 97 2a c8 bc 86 c9 9a bc
       -0.02420731 -0.027563639 -0.02443437 -0.018894922
0001f0 5a 6a 83 bc af 09 52 3c e6 2a 30 3b d4 8e 57 3a
       -0.016041923 0.012819692 0.0026881038 0.0008222882
000200 2c 57 d4 3c bb c1 26 3d 14 ec 90 bb e2 fb 1d bd
       0.025920473 0.0407121 -0.004422674 -0.038570292
000210 d2 7b b7 3b c0 a9 87 bc 4c 60 05 bd cf 10 b3 bb
       0.0055994773 -0.016560435 -0.03256254 -0.00546465
000220 38 02 91 bc 4a 7c 86 bc e5 ef cd bb d5 cf 81 bc
       -0.017701253 -0.016416688 -0.006284701 -0.015846172
000230 7d bc 80 3c 5a 49 d6 bc 39 ce 11 3d 14 99 e2 bc
       0.015714878 -0.026158024 0.03559706 -0.027660884
000240 be 54 97 bc a3 f8 3b bd 9b dd e6 3c 33 db c9 bc
       -0.018473025 -0.045891415 0.028181842 -0.024640655
000250 fc 44 10 bc 70 90 2d bc 7a d6 12 3c 5b f8 02 bd
       -0.00880551 -0.010593519 0.008962268 -0.03197513
000260 1a f3 be bc 8c 74 e2 bc 3c 28 0b 3c 41 b0 ad bc
       -0.02330928 -0.027643465 0.008493479 -0.021202208
000270 13 03 b3 ba bc d4 8f bc 77 54 e8 bc 6e 80 fc bc
       -0.0013657532 -0.017557494 -0.028360588 -0.030822959
000280 95 6f bb bc 68 a3 d3 ba 2f c9 42 bc e4 82 4b bc
       -0.022880355 -0.0016146721 -0.011888786 -0.0124213435
000290 6c 51 53 bc cf be b0 bc 43 fe b6 3c 4b 6d cf 3c
       -0.01289783 -0.02157536 0.022338038 0.02532067
0002a0 44 a1 10 bc ab e2 e8 bb 05 07 0b 3d 49 12 01 3c
       -0.008827511 -0.007107099 0.03394224 0.007877895
0002b0 5a 8c ae bb 76 d7 c8 bc 20 6d 1f bb 08 df 0a bc
       -0.00532679 -0.024516802 -0.0024326518 -0.008476026
0002c0 b5 ca f3 ba 37 e6 5c 3c e3 74 36 3d 85 5a f4 3b
       -0.001859984 0.013482622 0.044545066 0.00745708
0002d0 70 df 92 bb 7f ab 23 bd 6c d9 1e bd 94 90 e1 bb
       -0.004482202 -0.039958473 -0.03878157 -0.00688369
0002e0 9e a6 41 3d 84 9a bf bc fd 9d 4c 3c 9b ee db bb
       0.04727804 -0.023389108 0.012488839 -0.0067117936
0002f0 a6 40 59 bc 0d e7 53 3a 21 d1 f4 bc 99 2e fb ba
       -0.013260042 0.00080834405 -0.029884877 -0.0019163667
000300 c0 67 c6 bb a3 18 05 bd 16 56 be bc 8b e4 bc bc
       -0.0060548484 -0.0324942 -0.023234408 -0.023058197
000310 9d de 42 bc da c9 94 bc b0 1b 98 bc dd 85 f0 bc
       -0.011893895 -0.018162657 -0.01856789 -0.029360706
000320 10 96 2f 3d d8 4a e1 bc ff 82 8a bb 4c 30 94 bc
       0.04286772 -0.027501509 -0.0042270417 -0.018089436
000330 63 93 17 bc 81 b8 36 bb 0a b2 fa bc ae db fc 3c
       -0.009251448 -0.002788097 -0.030602474 0.03086647
000340 71 1f d6 bc b4 9d 57 3c 3b 2c f9 3c 5b 35 11 3a
       -0.02613804 0.013160158 0.030416599 0.00055392616
000350 fc c3 bd 3c 14 eb 5a bc 77 e4 93 bc 79 0f f6 bc
       0.023164742 -0.013361711 -0.018053276 -0.030036675
000360 54 96 18 bc 97 16 e9 bc 9b 46 80 bc 09 7e 92 bc
       -0.009313185 -0.028453154 -0.015658667 -0.017882364
000370 e5 4b 93 3c 73 b6 41 bc 62 3e 4d bc 11 50 c8 bc
       0.017980525 -0.011823284 -0.01252708 -0.024452241
000380 20 5c 43 bc 48 f1 93 bb 52 25 bb b9 e0 a0 bb bc
       -0.01192382 -0.004514847 -0.00035695225 -0.02290386
000390 9d a6 c7 bc 0b 5d a3 bc d9 e6 b0 3a d0 83 b5 bc
       -0.02437144 -0.019941827 0.0013496532 -0.02215758
0003a0 b5 72 45 bc 49 9c b8 3c 45 fd 9b bc 6d e7 5f bc
       -0.012051274 0.02253546 -0.019041667 -0.013666016
0003b0 87 c5 b2 bb 35 9a ae 3c be 54 10 bc 10 e2 3b bc
       -0.005455676 0.021313766 -0.008809267 -0.011467472
0003c0 67 90 94 bc dc 9d 41 bc ab f2 da bc 98 1b bc 3b
       -0.018135263 -0.011817422 -0.026727041 0.005740594
0003d0 04 2d 38 bd 7d 8c af bc 8b 50 40 bb ab 43 43 bc
       -0.044964805 -0.021429295 -0.0029344882 -0.011917989
0003e0 21 9a 17 bc 59 a1 04 bd 21 91 a8 bc 70 a1 ae bc
       -0.009253056 -0.032380436 -0.020577015 -0.021317214
0003f0 e1 7f 43 3c 62 2e 8e 3b 96 e9 b4 bc 74 62 5d bc
       0.011932344 0.0043390254 -0.022084039 -0.013512243

network.1.running_mean f4 [256]
000000 b5 1a 2b 3d f2 13 50 bd 8d d7 a8 bd 8a 61 b8 bd
       0.041773517 -0.05080027 -0.08244238 -0.09002979
000010 66 f2 d4 3d 07 be 0c 3d 53 16 33 bd 2e b8 56 bd
       0.10397796 0.03436091 -0.043722462 -0.05242174
000020 bf ab 90 bd f2 65 f8 3d b8 86 c0 bb 82 a1 ad 3c
       -0.07064008 0.121288195 -0.0058754347 0.021195177
000030 30 b5 81 3d 25 f6 9a 3d 9c 91 03 3e eb 50 86 3d
       0.06333387 0.075664796 0.12848514 0.06558403
000040 ca e2 87 bc 0f 45 8a 3d 15 76 7b 3d 93 11 fb 3d
       -0.016587634 0.06751453 0.06139191 0.122592114
000050 bf f5 66 bd bc 79 a5 3a d0 e3 b4 bb 60 e4 33 bc
       -0.056386705 0.0012624781 -0.0055203214 -0.010979742
000060 18 d6 b3 3b cc ca a8 bd 05 ed c6 3d 96 e9 0a 3e
       0.0054881684 -0.082418054 0.09713177 0.13565668
000070 7b 76 ea bd b7 fb aa 3a 3c 48 7f bd c1 2f 24 bd
       -0.114483796 0.0013044988 -0.062324747 -0.040084604
000080 a0 8f 12 3d e9 bf 95 bd 1a a4 b7 3d 44 4c 01 bd
       0.035781503 -0.073119946 0.08966847 -0.031566873
000090 0f 5c 80 bd fc 70 de 3d 3d 18 8d bd bb 8c c8 bb
       -0.06267559 0.10861394 -0.06889389 -0.006120292
0000a0 3e 7e b6 bd 73 79 17 bd f1 25 21 3c d1 bb 81 bd
       -0.089107975 -0.036981057 0.009835706 -0.06334651
0000b0 e1 3f 2a bd f3 8e 52 bd 8f 3c 09 bd 56 a1 01 be
       -0.041564826 -0.05140586 -0.03350502 -0.12659201
0000c0 5b d5 84 bc 3d 22 ac 3d e6 89 31 3d 7d e2 43 bd
       -0.016215017 0.08404968 0.0433444 -0.047823418
0000d0 5d a0 14 bd a0 31 82 bd f9 af d4 bd b0 68 0c 3d
       -0.036285747 -0.063571215 -0.103851266 0.034279525
0000e0 60 8c b8 3c 0a 0b a0 bc 85 56 86 bc f7 a7 a0 3c
       0.022527874 -0.019536514 -0.016398678 0.019611342
0000f0 90 62 51 bc e0 77 64 bd 2c 9b 8b bd 79 78 07 3d
       -0.012779847 -0.055778384 -0.06816706 0.033073876
000100 d0 7f a7 3d 1f e3 cb bb 2c 97 a1 bc 4a 63 8e bd
       0.08178675 -0.0062221433 -0.019725405 -0.06952532
000110 1f 7e b7 bd 3f 9e 92 bd 8e 1b a8 3d c5 1c 29 bd
       -0.089596026 -0.07159089 0.08208381 -0.041287202
000120 be f4 1e 3e 54 fa db 3c d6 ce ad bd 6e f7 6f 3d
       0.15523049 0.026852764 -0.084867164 0.058585577
000130 73 a8 31 bd 35 f5 dc bd 81 eb 47 3c e3 71 e6 3d
       -0.043373536 -0.10788957 0.012202145 0.11252191
000140 45 21 18 bd 84 51 c6 bd eb 6c c4 3c 52 c2 99 bb
       -0.037141103 -0.096835166 0.023977717 -0.0046923542
000150 c6 05 b9 3d fb 8b a9 3d cf 1c 1c bc d1 6b 5d 3c
       0.09034304 0.08278652 -0.009528353 0.013514475
000160 ca 40 9b 3d 57 95 e7 3b f2 d9 b8 3d 98 8c fc 3d
       0.07580717 0.0070673632 0.09025945 0.12331504
000170 e4 6d 76 3c 8f 8f 9d bc fb 2a c0 3d 6b 00 ec 3c
       0.015040848 -0.019233493 0.09383198 0.028808793
000180 76 43 af 3c bb 46 d9 bd c8 a4 94 3d 3a 41 97 3d
       0.021394473 -0.10609194 0.07257992 0.07385488
000190 01 64 0f 3e dc e9 2e 3d cf e4 b5 3c 0f 30 8f bd
       0.14002992 0.042703494 0.022203831 -0.06991588
0001a0 4a 2d aa 3d e7 dc 49 3d b8 33 f4 bc da 6e 95 3d
       0.083094195 0.049282935 -0.029809818 0.07296534
0001b0 e7 e0 02 3e 5c 48 eb bd ff fd dd 3d 5a f2 fa bc
       0.12781106 -0.11488411 0.108394615 -0.03063314
0001c0 09 67 89 3c a3 42 6e bd 7d 90 9c 3c fc 72 0a be
       0.016772764 -0.05816902 0.019111866 -0.13520426
0001d0 10 06 87 bd 16 b0 1b 3d b3 3c cb bd 94 10 37 bd
       -0.06592953 0.038009726 -0.09923687 -0.044693545
0001e0 a9 46 50 3c 85 74 bd 3d dd 55 e7 3d ec 40 85 bd
       0.012712159 0.0925074 0.11295674 -0.065065235
0001f0 f7 98 94 3d cb 95 3a 3d 5f 2d 8e 3c 40 bd c6 bd
       0.07255738 0.04555301 0.017355619 -0.09704065
000200 8c 43 1a 3e 6c 25 0b 3e 97 f2 04 be dc 7c 29 3d
       0.1506483 0.13588494 -0.12983166 0.04137884
000210 7e fc 48 3d 62 63 a2 3d 16 33 5b bd c4 7a 6d 3b
       0.04906892 0.07929112 -0.053515516 0.0036236504
000220 a1 6f 3b bd 2f 35 03 3e ac 95 92 3d b8 f9 5b bd
       -0.045760754 0.12813257 0.07157454 -0.053704947
000230 36 fe d6 3d 0a aa 1e 3e 22 20 1b bd 9a 92 c6 bc
       0.10497706 0.15494552 -0.03787244 -0.024239827
000240 a0 e5 de bc 65 75 c2 3d c2 47 fb 3a aa 06 19 bd
       -0.027209103 0.094950475 0.0019171166 -0.03735987
000250 60 ab 17 3b 5e 2c 94 ba ea 4f 30 3d 1f 95 ab bd
       0.002314292 -0.0011304726 0.043044962 -0.08378052
000260 74 e4 b9 bd fe 75 dc bd 4c 6e 85 bc 6c 87 29 3e
       -0.09076777 -0.10764693 -0.016287945 0.16555566
000270 0c 75 21 3c 07 5c 0d 3d a8 1f da bc 3e e7 8d 3d
       0.009854566 0.034511592 -0.026626423 0.069288716
000280 34 bd 64 bc bc 7a 7e bd bf a3 a2 3c 72 c1 a1 bc
       -0.013961125 -0.062128767 0.01985347 -0.019745562
000290 e4 48 df 3c 44 21 ae bd db d8 ff bb c6 91 9a 3c
       0.027256437 -0.08502439 -0.0078078336 0.018868338
0002a0 41 f9 b0 3d 7e 82 29 3d a3 ab 81 3d 25 74 37 3c
       0.086412914 0.041384213 0.06331565 0.011197125
0002b0 53 0c c0 3d 32 cd 96 3c 3a 08 d0 3d ff d2 38 3d
       0.09377351 0.018408392 0.10157819 0.045123097
0002c0 b3 a5 8d bd 29 3c 7a bd b4 1b d2 bc e8 93 dc bd
       -0.0691637 -0.06109253 -0.025647976 -0.107703984
0002d0 49 07 12 3d 43 99 1b 3c 78 a4 58 bd eb d9 e4 3b
       0.03565148 0.00949699 -0.052891225 0.0069839857
0002e0 fe 71 b6 3d 60 0b a1 3d 18 31 8d bc eb d6 25 3d
       0.08908461 0.07863498 -0.017235324 0.040488165
0002f0 d7 fa 8c 3d 92 06 b5 bd f8 47 7d ba c7 18 a1 bd
       0.068837814 -0.08839144 -0.0009661908 -0.07866054
000300 4c 63 10 3c d4 4a bd bd e9 c3 bc bd 9a 29 f8 bc
       0.008812737 -0.09242788 -0.092170544 -0.030293275
000310 c7 4c d8 bd 44 e7 b6 bc 27 ee b7 bb 34 ab b3 3a
       -0.10561519 -0.022327073 -0.005613107 0.0013707639
000320 90 b7 2b 3e c4 1f 27 3b 8f 9d c0 bd 96 e9 e9 bc
       0.16769242 0.0025501112 -0.09405052 -0.028553765
000330 8d 4b 4b 3d 39 a1 35 bd 45 52 03 be a0 04 3f bc
       0.049632598 -0.044343207 -0.12824352 -0.0116588175
000340 38 74 1e bd 44 99 c6 3d 7f 7d b1 bd 79 59 37 bd
       -0.038685054 0.09697202 -0.086665146 -0.044763062
000350 4f 79 a6 3d 3b 48 e2 3d c0 99 f0 bd 29 5d 44 3d
       0.081286065 0.11048933 -0.117480755 0.047940407
000360 76 d4 a2 3d 2a 61 ad bd 0a 38 8e 3d dd 37 87 3d
       0.0795068 -0.08465798 0.06944282 0.06602452
000370 3e b9 98 bb 2d a7 06 bd d0 a3 b6 3b 45 2e b5 3d
       -0.0046607545 -0.032874275 0.005573727 0.08846716
000380 0c 7e 15 3c 5e 0a ac 3d d0 53 c2 3b 82 c4 7a bc
       0.00912429 0.08400415 0.0059304014 -0.01530564
000390 b7 bb 39 bd da 5b d9 bd 89 1c 4b bd e5 5c df 3d
       -0.045345034 -0.106132224 -0.04958776 0.1090639
0003a0 69 77 03 3e ce 63 80 bd f2 a6 3c 3c 21 4c 3c bc
       0.1283852 -0.06269036 0.011514412 -0.01149276
0003b0 1b ef 21 bd a3 54 e8 bd 6f f0 ac bc 6a 1c ff 3c
       -0.03953467 -0.11344268 -0.021110741 0.031141479
0003c0 7e f7 18 bc 24 74 32 3d fd 2d c2 bd 06 38 8a bd
       -0.0093363505 0.04356779 -0.09481428 -0.06748967
0003d0 75 e7 0f bd 51 fe b2 3d 9a d4 5b 3c 01 a7 57 3c
       -0.035132844 0.08739913 0.013417387 0.013162375
0003e0 27 71 77 bd 82 ca 94 3b df c2 82 3d 19 8b 9f 3d
       -0.060410645 0.0045407424 0.06384825 0.07790203
0003f0 6e d0 bc bd 41 78 d7 bd 0e ff 12 3d b9 c4 b3 3c
       -0.09219442 -0.105209835 0.03588777 0.02194439

network.1.running_var f4 [256]
000000 1f fe de 3c e4 3c 08 3e 54 c6 df 3d 01 90 89 3d
       0.027220784 0.13304478 0.109265 0.0671692
000010 f3 06 dc 3d 57 4f 61 3d 8d 21 f4 3d 6a 6d 46 3d
       0.10743513 0.055007305 0.11920462 0.04844419
000020 da e5 0f 3d cb 74 cb 3d d6 9d 9d 3d 44 e3 dd 3d
       0.035131313 0.09934386 0.076961204 0.10834363
000030 03 eb ad 3d 0f 2c cf 3d 21 68 95 3d 45 1a 19 3d
       0.084920906 0.101158254 0.07295252 0.03737857
000040 9a db 69 3d c7 4f 24 3e bc 8a a2 3d 52 d3 51 3d
       0.057094194 0.16046058 0.07936618 0.05122692
000050 d4 14 0e 3e b9 26 8b 3d ae 22 72 3d 7d 38 d5 3c
       0.13875133 0.06794495 0.059115104 0.026027912
000060 30 87 73 3d c2 7d a3 3d 24 e0 f2 3d 78 26 ef 3d
       0.059455097 0.07982971 0.11859158 0.11677259
000070 a5 2d 92 3d 26 3a 13 3d 1a ce b0 3d d1 d6 9a 3d
       0.07137612 0.035944127 0.08633061 0.07560504
000080 93 10 18 3e 10 89 ce 3c 26 da 67 3d 54 c2 05 3e
       0.14850073 0.02521184 0.056604527 0.13062412
000090 b8 7f e0 3d 42 81 8b 3d 72 03 d0 3d 9c 53 95 3d
       0.109618604 0.06811763 0.10156907 0.07291338
0000a0 b2 71 8c 3d 41 c2 df 3d 7e 3c dc 3d ad 9d fe 3d
       0.06857623 0.10925723 0.107537255 0.12432418
0000b0 c0 89 b2 3d 10 24 e4 3d cb 4c b0 3d 8c 96 92 3d
       0.0871768 0.11139691 0.08608397 0.07157621
0000c0 69 53 07 3e 21 22 1c 3e f7 6c e9 3d 73 bb 95 3d
       0.13215412 0.15247394 0.113977365 0.07311144
0000d0 a1 47 da 3d 8d 91 96 3d 26 71 a3 3d 62 d0 3f 3e
       0.106581934 0.0735198 0.07980566 0.18731835
0000e0 11 8f 8c 3d 24 a9 09 3e 0b 88 1d 3e c8 d3 71 3d
       0.06863225 0.13443428 0.15383928 0.05903986
0000f0 7c 68 1a 3e 19 d3 af 3d 04 43 fc 3d 5d 98 1a 3e
       0.1507892 0.085851856 0.1231747 0.15097184
000100 76 cc 17 3e bf 80 05 3e ad e1 b4 3d c3 76 ee 3d
       0.1482409 0.13037394 0.08832107 0.11643746
000110 68 5a e9 3c 30 86 08 3e bc 37 b2 3d 15 1e d2 3d
       0.028485492 0.13332438 0.08702037 0.10259644
000120 00 60 21 3d 09 bd e8 3d d6 a2 14 3e ad cc 1b 3e
       0.039398193 0.113641806 0.14515242 0.15214796
000130 fc e4 b5 3d 9a e7 18 3d d2 71 6a 3d 53 1d 23 3d
       0.08881566 0.037330247 0.057237454 0.039822888
000140 e0 f0 c1 3d e3 0a 6c 3d 6e 5c 8b 3d 04 8c e2 3d
       0.094697714 0.05762757 0.06804739 0.11061862
000150 c3 1e d7 3d 9b 42 19 3d 34 db e5 3d 1a 6f d8 3c
       0.10503914 0.037417036 0.1122345 0.026420165
000160 ab 46 90 3d da 87 87 3d eb 3c 5a 3d 9a 18 a9 3d
       0.07044729 0.066177085 0.053280752 0.082566455
000170 5c 26 b4 3d 8d 5e c9 3d 70 9c d9 3d 1d 3c a6 3d
       0.08796379 0.09832487 0.10625541 0.081169344
000180 08 0b cc 3d dd 5d 13 3d d1 20 8c 3d 84 90 a4 3c
       0.099630415 0.035978187 0.06842197 0.020088442
000190 23 ee d5 3d f1 0f 38 3e d0 c4 19 3d 0b a9 a3 3d
       0.104458116 0.17974831 0.03754121 0.07991227
0001a0 f3 74 92 3d 59 ae 24 3d 9f e5 bf 3d 6d 02 d5 3d
       0.071512125 0.040205333 0.093699686 0.10400853
0001b0 de b5 81 3d 4d 24 26 3e 6d f6 04 3e b9 d4 05 3e
       0.063335165 0.16224785 0.12984629 0.13069429
0001c0 64 bc 8f 3d b0 35 2b 3d 84 06 91 3d 70 de 4d 3d
       0.070183545 0.041799247 0.07081321 0.05026096
0001d0 99 39 fa 3d ad 0e b1 3d 65 7e 8b 3d 0b 4d 70 3d
       0.12218017 0.08645377 0.06811217 0.058667224
0001e0 c0 e6 05 3e 6c 0a c9 3d b2 4e 12 3e 1b b1 94 3d
       0.13076305 0.09816441 0.14287832 0.07260343
0001f0 59 db ae 3d 29 f8 bd 3d 83 60 bd 3d 6c 34 ad 3d
       0.08537931 0.092758484 0.09246924 0.08457264
000200 61 03 89 3d b2 39 88 3c 6d 1f d0 3d d6 08 8a 3d
       0.066900976 0.016629074 0.10162244 0.067399666
000210 cf f8 66 3d 9c 0b 81 3d 8a 7c c4 3d a1 a4 ac 3d
       0.056389626 0.063010424 0.095940664 0.08429838
000220 d9 3e 9c 3d d4 7a 7e 3d 8a df aa 3d 09 4a d3 3d
       0.07629175 0.062128857 0.08343418 0.103168555
000230 8f 92 0f 3d 99 48 e4 3d eb b5 43 3d cc 07 ff 3d
       0.03505188 0.111466594 0.047780912 0.12452659
000240 3c 30 f6 3d cc 9e d2 3d d2 9e da 3c db a7 b5 3d
       0.12020919 0.10284194 0.02668706 0.088699065
000250 18 02 b1 3d 80 b4 b4 3d 40 4d b0 3d 7e 22 16 3e
       0.086429775 0.0882349 0.08608484 0.14661595
000260 20 82 10 3e de e4 f3 3d f5 e8 6b 3d 96 7d af 3d
       0.14112139 0.11908887 0.057595212 0.085688755
000270 0b d6 1f 3d a2 95 ef 3d 47 5b f3 3c 02 32 d6 3d
       0.039022487 0.11698462 0.02970661 0.10458757
000280 a0 47 00 3e 07 1d 6a 3d cf a8 b5 3d 7f 45 05 3e
       0.12527323 0.05715659 0.08870088 0.13014792
000290 fd 61 ce 3d ce b1 fa 3c c9 b9 05 3e 7c ef 4d 3d
       0.100772835 0.030602362 0.13059153 0.05027722
0002a0 04 32 04 3e 06 8e 96 3d 06 4f 17 3d d6 79 fd 3d
       0.12909704 0.073513076 0.036940597 0.12376754
0002b0 d6 a8 0d 3e b8 e7 97 3d 2a 4a 10 3e e3 35 13 3e
       0.13833937 0.07417244 0.14090791 0.14376025
0002c0 fd c1 31 3d 3d fe 3e 3d 8d 5f 69 3d a6 4f 02 3e
       0.043397892 0.04662918 0.05697589 0.12725696
0002d0 11 a8 ec 3d 0c a5 cd 3d d5 e7 b4 3d 3e ff 2b 3d
       0.115554936 0.10041246 0.08833281 0.041991465
0002e0 7f c7 df 3c 69 18 94 3d 75 e4 67 3d 76 76 a0 3d
       0.027316807 0.07231218 0.056614358 0.07835095
0002f0 b3 3a 27 3d cf 2e 04 3d ef b5 36 3e 21 86 05 3d
       0.040827464 0.032271203 0.1784284 0.03259862
000300 f1 c7 ea 3d f3 aa ae 3d 74 33 dc 3d a0 a4 2e 3e
       0.11463917 0.085287 0.107520014 0.17054987
000310 39 4f 0e 3e 56 b9 03 3e b4 90 3c 3e c3 c1 da 3d
       0.13897409 0.12863669 0.18414575 0.10681488
000320 90 c9 cd 3c 76 f1 17 3e c8 b8 ec 3d e5 b0 fc 3d
       0.025120527 0.14838204 0.11558682 0.123384275
000330 5d b3 c5 3d 3f 17 bf 3d 33 8f f8 3c 2a d4 49 3d
       0.096533515 0.09330606 0.03034172 0.0492746
000340 1f f5 87 3d 1e 2c 3e 3d bf 88 1c 3d 41 03 84 3d
       0.0663855 0.046428792 0.03821635 0.06445933
000350 f6 9f e9 3d f9 3f 05 3d 0a ad f9 3d 72 53 2e 3d
       0.11407463 0.032531712 0.12191208 0.04256005
000360 ba b9 f7 3d 40 43 e2 3d 98 01 86 3d 5a d7 6d 3d
       0.120959714 0.11047983 0.06543273 0.058066703
000370 7b 69 c3 3d 77 30 a4 3d 46 1b 76 3d bb c0 ee 3d
       0.09541603 0.080170564 0.060084604 0.11657854
000380 45 b9 f7 3d 2d 76 82 3d 30 6a c9 3d 90 a6 d5 3d
       0.12095884 0.063701965 0.09834707 0.1043216
000390 3a 5e 19 3e a4 a8 c9 3d 68 d8 cc 3d e4 a0 ca 3d
       0.14977351 0.09846619 0.10002214 0.09893969
0003a0 a1 24 4d 3d ee 34 5e 3d 37 dc a5 3d 44 ee 64 3d
       0.05008376 0.054249696 0.08098643 0.05589129
0003b0 fe 96 fb 3d 0f 23 30 3d 23 f4 d6 3d 1c 97 13 3e
       0.12284659 0.043002184 0.10495784 0.14413112
0003c0 dd 28 ee 3d 86 ac f5 3d 50 2b 1d 3e d2 5b 9a 3d
       0.11628888 0.11995797 0.15348554 0.075370446
0003d0 48 7f ac 3d c6 92 0f 3e 54 14 75 3d c7 ee ab 3d
       0.084227145 0.14020833 0.05983384 0.083951525
0003e0 5a 2f bf 3d aa 11 05 3e 11 41 f6 3d 91 c0 6f 3d
       0.093352035 0.1299502 0.12024129 0.058533255
0003f0 ab da 08 3e 25 70 42 3d 3a 91 b4 3d 46 e2 b8 3d
       0.13364665 0.04747023 0.08816762 0.09027533

network.4.weight f4 [128, 256]
000000 3d dc 70 bd a2 cf 14 3d 61 9e 25 bd 6d f6 1b bb
       -0.058803786 0.036330827 -0.040434245 -0.0023798004
000010 18 79 60 37 c8 d8 2d 3d 05 69 eb 3b ea 15 68 3d
       1.3379635e-05 0.042443067 0.00718415 0.056661524
000020 c8 3e 87 3d e1 0e 13 bd cb 33 5e bc 62 8e 24 bd
       0.066037714 -0.03590286 -0.013562153 -0.04017485
000030 59 b7 55 bc e7 e1 12 bd 77 7f 34 bd d8 5b c0 bc
       -0.013044202 -0.03585997 -0.044066872 -0.023481295
000040 44 24 f3 3c e4 0c 96 3c 6a c7 d8 bc 0a 87 d0 3a
       0.029680379 0.018316694 -0.026462276 0.0015909385
000050 50 7d a9 bc 80 dc 33 3c a5 dc d2 3b c9 b0 96 3d
       -0.020689636 0.010977864 0.0064349943 0.07357938
000060 ea 22 4e 3d fa c3 54 bc 46 c6 e1 bc 72 47 8c bb
       0.050326265 -0.012986178 -0.027560364 -0.004280978
000070 3a da 67 bb cb 09 a7 3d 14 ce bf bc 93 fa 38 bc
       -0.0035377876 0.08156165 -0.023413695 -0.01129021
000080 47 90 3c bd cb 9b 6f bb d5 27 f3 3c 5a 11 2f bd
       -0.04603603 -0.0036561366 0.02968208 -0.042741157
000090 29 c8 0a bd f7 b2 95 bc af e8 c3 b9 92 57 b9 ba
       -0.033882294 -0.018273814 -0.0003736666 -0.0014140478
0000a0 9d f9 4d 3d b8 5f 6e 3c 6c ad 5e bc 54 ab 66 bd
       0.050286878 0.014549188 -0.013591152 -0.056315735
0000b0 d0 64 49 3d bd 4c 70 3d d3 df 80 3c 04 5e ad bc
       0.049168408 0.058666933 0.015731728 -0.021162994
0000c0 ec ce 16 bd 3c c5 e1 3c a0 eb d4 3c a4 16 5b bc
       -0.03681843 0.027559869 0.025991261 -0.013372097
0000d0 79 3c 10 3d df 5b 31 bd fc 01 b9 bc 4b 60 35 bd
       0.03521392 -0.043300506 -0.022583954 -0.044281285
0000e0 d1 77 fd bc a8 ab 83 bd ca cc 05 bc d4 61 89 3c
       -0.030940922 -0.06429225 -0.008166501 0.01677028
0000f0 1b 9b c1 3c 8c 8c c2 3c 6e e7 98 bd 9b f7 da 3c
       0.02363353 0.023748659 -0.07466017 0.026729396
000100 86 9a bd bc 35 47 bd 3c ce 1c cf 3c d3 94 a6 3d
       -0.023144972 0.023105243 0.02528229 0.08133855
000110 90 5f 24 bd 5d 83 53 3b a3 df e2 3c 2b d1 a7 3c
       -0.040130198 0.0032274344 0.027694529 0.020485481
000120 d2 d3 d4 3c 19 95 26 bd 54 4c 36 3d 77 fa 55 3d
       0.02597991 -0.040669534 0.044506386 0.052240815
000130 f1 0b 28 bd 06 9d 1e 3b 4e 47 92 3d a7 fd 01 3d
       -0.041027013 0.002420248 0.071425065 0.031736042
000140 63 c2 1b bd 7c 17 5f bd aa 13 11 bd 65 d2 41 bc
       -0.03802718 -0.054465756 -0.035419144 -0.011829947
000150 fa 2a 9d 3c 3e b1 83 bd e3 be 00 bd dc bb bc bc
       0.019185532 -0.06430291 -0.031432044 -0.023038797
000160 98 51 b8 3c 2b 8c 11 3c 4b 49 6b 3b 8c 33 cf bc
       0.022499844 0.008883516 0.003590184 -0.025293134
000170 55 1c 13 3d 63 a3 fd 3c 7c f3 34 bc ff b4 01 bd
       0.03591569 0.030961698 -0.011044379 -0.031666752
000180 65 2d 90 bd 83 d2 aa 3c 7f ee 3b 3d f0 cc 1e bd
       -0.07039908 0.020852333 0.045881744 -0.038769662
000190 b3 55 11 bd c2 5b 53 3d 8d 5f b0 bb 29 d5 32 3d
       -0.03548212 0.05160118 -0.0053824843 0.043660317
0001a0 58 08 12 bd db 29 1b 3b ca da 85 3c 84 18 85 bd
       -0.03565249 0.002367607 0.016339678 -0.064988166
0001b0 05 32 50 bd db dc b0 bb 1c ba 6a 3d 78 9d 8b 3c
       -0.050828952 -0.005397422 0.057306394 0.01704286
0001c0 dd a0 a7 bc 87 6d 4e bd 04 24 88 3c ae fc 02 bc
       -0.020462448 -0.050397422 0.016618736 -0.007994814
0001d0 c9 5a 74 bd 72 84 e4 bc 7b 01 11 bd 3c 5a 1c 3d
       -0.059656892 -0.027895186 -0.035401803 0.03817199
0001e0 c5 06 a5 bc db 98 da bc ff 2c 4c bd 85 fb 56 bc
       -0.02014483 -0.026684215 -0.0498476 -0.01312149
0001f0 cf e4 f8 3c 50 96 92 bc 52 89 af bc 72 28 d5 bc
       0.030382542 -0.01789394 -0.021427784 -0.026020262
000200 87 9a c3 bc 64 94 10 3d 10 4c 74 3b ad d1 76 3d
       -0.023877395 0.035297766 0.0037276782 0.060258556
000210 2d 14 ba 3d ed 22 c5 3b 5e 44 46 bc 81 60 36 3d
       0.090858795 0.0060161264 -0.012101261 0.044525627
000220 cc 43 ba bc 64 7e 60 3b 4c 1c 36 bc ef 81 f3 bb
       -0.022737406 0.0034255022 -0.011115145 -0.007431261
000230 80 61 9f 3d 56 64 ee bc d5 eb 92 bd a8 0e 9a bc
       0.077822685 -0.029100578 -0.07173888 -0.018805817
000240 ca f3 12 bd 2c 98 a1 bc b6 cb 53 3d 5d d2 19 3d
       -0.035877027 -0.019725882 0.051707946 0.037554134
000250 18 3c 58 bd 36 44 37 bc 00 e6 e9 bc 0b 9e 4c 3d
       -0.052791685 -0.011185696 -0.028552055 0.04995541
000260 8e c4 85 bc 86 2e 78 bc dc c6 70 bc 74 84 bd bc
       -0.016329076 -0.015147811 -0.014695849 -0.023134448
000270 6e 86 5b bd fa a0 f9 ba 8e c8 8f 3d c2 b9 c5 3b
       -0.053595 -0.0019045167 0.07020675 0.006034107
000280 54 8b 21 3d 50 3e 34 3d 64 00 24 3d 62 7b 10 3d
       0.039439514 0.04400474 0.040039435 0.035273917
000290 c8 cd 6c bd 79 b9 da bc 01 0a 0e 3c 89 40 1c bc
       -0.057813436 -0.026699768 0.008669377 -0.009536871
0002a0 5e c7 24 bd a8 1e 51 bd ae 00 8a bd 88 97 3b 3b
       -0.040229194 -0.051054627 -0.06738411 0.0028624255
0002b0 93 73 1d 3d f9 11 98 bc 84 f7 0d 3d ab 6d 44 bd
       0.0384403 -0.018563258 0.034659877 -0.04795615
0002c0 33 1e b9 3d f6 aa 54 bc 43 70 8f 3c 82 a3 f2 b9
       0.09038963 -0.012980213 0.017509585 -0.0004627966
0002d0 c4 6f 0f bc 26 cf 11 bc 5b f1 10 bd f1 c6 88 3c
       -0.008754674 -0.008899486 -0.035386425 0.016696425
0002e0 6c 24 fd bb 47 89 a0 bc 02 8a 75 3b 20 a4 4c bd
       -0.007725289 -0.019596709 0.0037466292 -0.04996121
0002f0 d6 1e ca bc 84 7b 90 3d 78 48 10 bd a5 32 e8 3b
       -0.024672907 0.07054809 -0.03522536 0.0070861154
000300 a3 9d 49 3d f4 7e 4a bc 00 ea 87 bd b8 9d 82 bb
       0.0492226 -0.01235937 -0.06636429 -0.0039860867
000310 aa 8a a3 bc 2b f8 e0 bc 26 d5 6d bc b0 a4 db bc
       -0.019963581 -0.027462086 -0.014516151 -0.026811928
000320 58 10 bc bd c3 2d 14 3d f9 23 0e bd e8 c6 08 bd
       -0.09182805 0.036176454 -0.034702275 -0.033392817
000330 cc 51 02 bd 5b d7 16 bd 78 6a 5d 3d d1 1f 9f bc
       -0.03181629 -0.036826473 0.054056615 -0.019424351
000340 64 2c 1b 3d 1c 39 b5 3b c1 29 85 3d 6e 7c 10 bd
       0.03788413 0.0055304896 0.065021046 -0.035274915
000350 7b b7 87 bb a7 9b 51 3d b9 1b 61 3c c2 77 79 bd
       -0.0041417456 0.051173832 0.01373952 -0.060905226
000360 b0 80 f7 3c be 66 db 3c 62 6b cc bc 7c ba ac 3b
       0.03021273 0.02678239 -0.024953548 0.005271254
000370 73 81 91 bd ee d6 7f bd 43 21 22 bc 22 88 44 3c
       -0.071047686 -0.062460832 -0.0098956255 0.011995347
000380 ef ea 41 3d 8d 9c f8 3c 86 d2 84 bb 4e 10 33 3c
       0.04734319 0.030348087 -0.0040534167 0.01092918
000390 b8 63 06 3d f1 5a 18 3d f1 65 f6 bc 0a 0a 26 bd
       0.032809943 0.037196103 -0.030077906 -0.040536918
0003a0 ce ce 67 bb 51 d9 89 bc 2b e7 6d 3c 1b d5 43 3c
       -0.0035371068 -0.016827257 0.014520447 0.011952664
0003b0 da 95 ab bc af 1e 39 3b f2 38 b9 3b a2 89 f3 bc
       -0.020945478 0.0028247049 0.0056525404 -0.029728714
0003c0 86 e1 7a 3d 92 43 05 bd ea 87 c7 bc 2a e9 f5 3a
       0.061250232 -0.032535143 -0.024356801 0.0018761505
0003d0 bc d8 1d 3d ea de b1 bc 6b eb cf bb a8 68 f3 bc
       0.038536772 -0.021712739 -0.0063452027 -0.02971299
0003e0 f0 f5 91 3c cd a7 a2 3c 4d 3f a6 bc 8c 28 26 bc
       0.017817467 0.019855404 -0.020293856 -0.010141503
0003f0 8f 5b 42 3c f1 be 58 3d 16 91 19 3d b6 a2 03 3d
       0.01186265 0.05291647 0.03749188 0.032137595
